logs/h1/Apr29_16-10-48_/model_0.pt (torch, 739420 bytes, 48 tensors)

std f4 [10]
0	0x3f4ad815	0.79235965
1	0x3f4ad7d1	0.7923556
2	0x3f4c1612	0.79721177
3	0x3f4bb8ba	0.79578745
4	0x3f4d6e37	0.802463
5	0x3f4aff61	0.7929593
6	0x3f4ad81e	0.7923602
7	0x3f4d1015	0.80102664
8	0x3f4aaeba	0.7917286
9	0x3f4de069	0.8042055

actor.0.weight f4 [32, 64]
0	0xbdcb032a	-0.09912713
1	0xbd7867f1	-0.060646
2	0x3c626c43	0.013819757
3	0x3d4ccb10	0.049998343
4	0x3ce1d122	0.027565543
5	0x3cd2fbb1	0.025754781
6	0xbdc67d5f	-0.096918814
7	0xbdc95d72	-0.098322764
8	0x3dda14b0	0.10648477
9	0xbdb397cd	-0.08769188
10	0xbd2c393e	-0.042046778
11	0x3d9667ad	0.07343993
12	0x3db28cd4	0.08718267
13	0x3db749a1	0.089495905
14	0xbd69d99e	-0.0570923
15	0x3d528890	0.051399767
16	0x3d176d3d	0.036969412
17	0xbdb836c7	-0.08994823
18	0xbdbcd737	-0.092207365
19	0x3c21bbc6	0.009871429
20	0x3de18fa1	0.11013723
21	0xbd17e4a5	-0.037083287
22	0x3d1d262a	0.038366474
23	0x3dcd1233	0.10013237
24	0x3d8c43b6	0.06848852
25	0x3d161202	0.036638267
26	0xbcf74eec	-0.030189
27	0x3d897f4f	0.06713735
28	0xbddc8889	-0.107682295
29	0x3ce96ae5	0.028493354
30	0x3c958617	0.018252416
31	0xbd08413b	-0.033265334
32	0x3de349fb	0.11098095
33	0xbe0a23a1	-0.13490154
34	0xbdaac4c9	-0.08338315
35	0x3dd34fe5	0.10317973
36	0xbd0e57cf	-0.03475171
37	0x3cba79b5	0.022763113
38	0x3ca4079e	0.020023163
39	0x3ddd61a3	0.10809638
40	0xbb411891	-0.0029464106
41	0xbd35a18d	-0.04434352
42	0xbd1cb77c	-0.03826092
43	0xbd3c217c	-0.04593037
44	0xbda63b69	-0.081168
45	0x3d5b16a4	0.05348839
46	0xbb2e23b3	-0.0026571571
47	0xbdb482d6	-0.088140175
48	0xbc9ff153	-0.019524252
49	0xbd017221	-0.031602982
50	0x3d19e0b8	0.037567824
51	0xbddaca70	-0.10683143
52	0x3e070797	0.13186489
53	0xbde45ef8	-0.11150926
54	0x3de14586	0.10999589
55	0x3bdc613f	0.00672546
56	0x3d3c7859	0.04601321
57	0x3d003f4e	0.031310372
58	0xbdc681b2	-0.09692706
59	0xbddcc65b	-0.10780021
60	0x3ca429c5	0.020039449
61	0xbd04e592	-0.032445498
62	0xbd730121	-0.05932725
63	0xbd86fa25	-0.0659068
64	0xbdb9010b	-0.09033402
65	0x3d486bde	0.048930995
66	0xbdd91bcd	-0.10601006
67	0xbd63db6a	-0.05562917
68	0x3d7f1ee8	0.062285334
69	0x3d3026e5	0.043005843
70	0xbd1ba5c0	-0.03799987
71	0xbdfb9896	-0.12284963
72	0x3d83226c	0.0640305
73	0x3dce3714	0.10069099
74	0xbd90a99d	-0.07063601
75	0x3dfb10aa	0.12259038
76	0xbd6ebcff	-0.05828571
77	0x3db19f6f	0.08672988
78	0x3d4c5bde	0.0498923
79	0xbdc8b9b7	-0.09801047
80	0x3d1a9987	0.03774407
81	0xbd7883ae	-0.060672455
82	0xbd00890a	-0.03138069
83	0x3c17b762	0.00926003
84	0xbdc64c8c	-0.09682569
85	0x3d2ceaf8	0.04221627
86	0x3dbc4f2c	0.09194788
87	0xbcafa1f3	-0.021439528
88	0x3d3ee210	0.04660231
89	0xbde54d16	-0.111963436
90	0x3bb26066	0.0054436205
91	0xbd977620	-0.073955774
92	0x3b4b6514	0.003103559
93	0xbd273cba	-0.040829398
94	0xbd869d51	-0.065729745
95	0xbcc5b424	-0.02413375
96	0xbdef4162	-0.11682393
97	0xbd3e3320	-0.046435475
98	0xbd82d901	-0.063890465
99	0x3dfacec6	0.1224647
100	0xbd93747e	-0.071999535
101	0xbc33aca7	-0.0109664565
102	0xbccc5a4a	-0.024945397
103	0xbdd20fed	-0.10256944
104	0x3ce640be	0.028107043
105	0xbdbee50e	-0.093210325
106	0x3d85a4fe	0.065256104
107	0xbd45dbb7	-0.04830524
108	0x3d62f62a	0.05541054
109	0x3db4f4d3	0.08835759
110	0x3dc7f635	0.09763757
111	0x3de31197	0.11087339
112	0xbcbcc9b6	-0.023045402
113	0xbe0707ac	-0.1318652
114	0xbd366e34	-0.04453869
115	0xbdec1f5d	-0.115294196
116	0x3d1a6ab6	0.037699424
117	0xbdd6edad	-0.10494552
118	0xbc36e3d9	-0.011162722
119	0x3dcea648	0.100903094
120	0xbcd37a10	-0.02581504
121	0x3c129148	0.008945771
122	0x3defaf4a	0.117033556
123	0xbd8b3ad9	-0.06798334
124	0xbded37a7	-0.115828805
125	0x3d81fcce	0.06347047
126	0x3daff80a	0.085922316
127	0xbc8af4e3	-0.016962474
128	0xbdb9fa65	-0.09080962
129	0x3ce11d40	0.027479768
130	0x3d295a26	0.041345738
131	0xbdb816d0	-0.08988726
132	0xbd5a6524	-0.05331911
133	0xbb6af97a	-0.0035854266
134	0x3d7cd52c	0.061726734
135	0x3aa12b2e	0.0012296194
136	0x3e013c63	0.12620692
137	0x3e060ed3	0.13091592
138	0x3ca66c58	0.020315334
139	0xbda30e2e	-0.07961689
140	0xbd937c3c	-0.0720143
141	0xbd0c3380	-0.0342288
142	0x3c6c5b3a	0.014426047
143	0xbda95aab	-0.08269247
144	0xbe0b7e18	-0.1362232
145	0xbd4e1d66	-0.050321005
146	0xbdc3eddb	-0.09566852
147	0x3d35da73	0.044397783
148	0xbd898d70	-0.0671643
149	0xbca1c5e1	-0.019747676
150	0x3d2c3d99	0.04205093
151	0x3d5a493e	0.053292505
152	0xbcbe030d	-0.023194814
153	0x3d707eea	0.058714785
154	0xbda3301c	-0.079681605
155	0x3d0dc056	0.034607254
156	0x3c6904bf	0.014222323
157	0xbdf68689	-0.12037379
158	0x3d24b84d	0.040214825
159	0xbd9634d8	-0.07334298
160	0xbd178389	-0.036990676
161	0xbd8a215e	-0.067446455
162	0xbdb4b462	-0.08823468
163	0x3da2469b	0.07923623
164	0x3d9d98dd	0.07695172
165	0x3cbeae95	0.023276607
166	0xbd993e7e	-0.074826226
167	0x3dedad90	0.1160537
168	0xbd41e9a4	-0.047341958
169	0xbdaa5015	-0.08316056
170	0xbdbd1fa2	-0.09234549
171	0x3c435a3f	0.011923372
172	0xbd8af795	-0.06785504
173	0xbccddfeb	-0.025131186
174	0xbde37e87	-0.111081176
175	0xbcf4f21f	-0.029900609
176	0xbe00f7d1	-0.12594534
177	0xbdb1babd	-0.086781956
178	0xbdd6a49a	-0.10480614
179	0xbdbec981	-0.093157776
180	0x3dd39505	0.103311576
181	0xbd15af27	-0.03654399
182	0xbdb00c0b	-0.08596047
183	0x3dff6f69	0.12472422
184	0x3ca29112	0.019844566
185	0xbdd4197b	-0.103564225
186	0xbdbcd750	-0.09220755
187	0x3be69072	0.007036262
188	0xbda98716	-0.08277719
189	0x3d589ef7	0.052885976
190	0xbde10802	-0.109878555
191	0xbe05e40a	-0.13075271
192	0x3d889f56	0.06671016
193	0x3bb20c75	0.005433614
194	0x3d17220f	0.036897715
195	0xbc9d7295	-0.019219676
196	0xbdd9795f	-0.10618853
197	0x3dc6f497	0.097146206
198	0xbca60aea	-0.020268876
199	0x3dd8b264	0.105809
200	0xbd3a5bde	-0.045497768
201	0xbd26a0e1	-0.04068077
202	0xbc919f1b	-0.017776063
203	0xbd98fdf4	-0.07470313
204	0x3d1e0ace	0.038584523
205	0x3cc1ed9c	0.023672871
206	0xbd7a6dd6	-0.061139904
207	0xbda83803	-0.082138084
208	0x3ddaed4b	0.10689791
209	0xb9d1743a	-0.00039950182
210	0x3d098250	0.03357154
211	0xbd9c72fa	-0.076391175
212	0x3db44ec1	0.088040836
213	0x3dd414b4	0.10355511
214	0x3d0f7fd8	0.03503403
215	0x3de86fab	0.11349424
216	0x3db1c56e	0.08680235
217	0x3de4c339	0.11170048
218	0xbd8889d3	-0.06666913
219	0xbd27e9f2	-0.040994592
220	0xbcebf441	-0.028802993
221	0xbd8ce4f0	-0.06879604
222	0x3d8ef6fc	0.06980702
223	0xbda197bd	-0.0789027
224	0x3d41e33c	0.04733585
225	0x3d8a3573	0.06748476
226	0xbd3f8f4a	-0.04676751
227	0x3e071e24	0.13195091
228	0xbd4b59cc	-0.049646184
229	0x3d7abd47	0.061215665
230	0x3da0fb55	0.07860438
231	0xbda87dae	-0.082270965
232	0xbc1d5a5f	-0.009604066
233	0x3dd4b5fb	0.103862725
234	0xbdd8edf6	-0.105922624
235	0xbd64a464	-0.055820838
236	0xbdeb0466	-0.11475448
237	0x3dab2943	0.083574794
238	0x3db89603	0.090129875
239	0x3c693746	0.01423437
240	0x3cfaf762	0.03063554
241	0xbdeb8e1f	-0.11501717
242	0x3d7f274e	0.062293343
243	0xbd62fb3c	-0.055415377
244	0x3d5e73cf	0.054309662
245	0xbdadd1bf	-0.084872715
246	0xbdbe690e	-0.09297381
247	0x3dad4af1	0.084615596
248	0x3d3ecd47	0.046582486
249	0xbd287dee	-0.04113572
250	0xbda0e72c	-0.078565925
251	0xbdeb345f	-0.11484598
252	0x3d993d78	0.07482427
253	0xbd57f978	-0.052728146
254	0x3d124ded	0.035718847
255	0x3da06da7	0.078334145

actor.0.bias f4 [32]
0	0xbd4813bd	-0.04884695
1	0xbdda98dc	-0.10673687
2	0xbdcda408	-0.10041052
3	0x3c17b923	0.009260449
4	0xbdbd34c0	-0.09238577
5	0x3d901f75	0.0703725
6	0xbcad7cb3	-0.021177625
7	0xbd01366e	-0.03154605
8	0xbdcc34c3	-0.09971001
9	0x3d5836e9	0.05278674
10	0xbd9adfec	-0.07562241
11	0x3da94b6f	0.08266341
12	0xbc0fc8fc	-0.008775946
13	0xbdb646f8	-0.08900255
14	0x3dc9cfa2	0.09854056
15	0x3dc609c4	0.096698314
16	0xbdd7fccc	-0.10546264
17	0xbd9c5692	-0.076336995
18	0xbd4354bf	-0.047688242
19	0xbdbb19ba	-0.09135766
20	0x3c811aeb	0.015759906
21	0xbdbe7475	-0.09299556
22	0x3d869167	0.06570702
23	0xbdc8b339	-0.09799809
24	0xbde3cc5e	-0.11122964
25	0xbb85f3ab	-0.0040878854
26	0xbc1eb4cb	-0.009686659
27	0x3cbf012f	0.023315994
28	0xbdc41a7c	-0.09575364
29	0x3dd4ad38	0.10384601
30	0xbdd3cad0	-0.10341418
31	0x3dc656ec	0.09684548

actor.2.weight f4 [10, 32]
0	0x3e187286	0.14887437
1	0x3d50a800	0.050941467
2	0x3d1daa6d	0.03849261
3	0xbdc775f0	-0.09739292
4	0x3d49f62a	0.049307026
5	0x3e17b830	0.14816356
6	0xbe274fde	-0.1633906
7	0x3e1c5cf6	0.15269837
8	0xbdb732f5	-0.08945266
9	0x3d54f8c6	0.05199506
10	0x3dab4ae5	0.083638944
11	0x3c8ac684	0.016940363
12	0xbdd6200d	-0.10455332
13	0xbdd8639a	-0.105658725
14	0x3c6a4c3d	0.014300403
15	0xbdbcc7d2	-0.092178
16	0xbe10718e	-0.14105818
17	0xbe2cee2e	-0.16887733
18	0x3e2ac1b6	0.16675457
19	0xbe2aeb5c	-0.16691345
20	0xbdee941a	-0.11649342
21	0x3d887bbc	0.066642255
22	0x3de748fd	0.11293218
23	0x3e270adf	0.1631274
24	0x3d7554d3	0.059895348
25	0x3e1b159b	0.1514496
26	0xbdd290cb	-0.10281523
27	0x3d81539c	0.06314775
28	0x3c9dfbd4	0.01928512
29	0xbe1fddc0	-0.15611935
30	0x3e16ecca	0.14738765
31	0x3d81aded	0.06332002
32	0x3dbdcac6	0.092671916
33	0x3dd07179	0.10177893
34	0x3d7cef9f	0.061751958
35	0xbdd64598	-0.10462493
36	0x3de7818d	0.11304007
37	0x3c160b92	0.009158032
38	0xbd97e498	-0.07416648
39	0x3dcd18a2	0.10014464
40	0xbb895957	-0.0041915583
41	0x3cc59738	0.024119958
42	0x3defc0c2	0.117066875
43	0x3e0298ce	0.12753603
44	0xbc69551b	-0.014241482
45	0x3c00d3f8	0.007863037
46	0x3bea6c58	0.007154029
47	0x3daafcc3	0.08348992
48	0x3d967e5e	0.073483214
49	0x3deb3585	0.114848174
50	0xbd6e305a	-0.05815158
51	0xbda2b474	-0.07944575
52	0xbd273b90	-0.040828288
53	0x3dddad84	0.10824111
54	0x3e145583	0.14485745
55	0xbd86a052	-0.065735474
56	0x3dc1b7fb	0.094589196
57	0x3e3104fd	0.17287059
58	0x3debaca9	0.11507542
59	0xbbf0b84c	-0.0073461886
60	0xbceafee1	-0.028685989
61	0x3e2a6043	0.16638283
62	0x3d8403c0	0.06446028
63	0xbd89ed89	-0.06734759
64	0x3d2f430f	0.04278856
65	0xbdcf3b16	-0.101186916
66	0xbdb9476a	-0.09046824
67	0x3e09b600	0.13448334
68	0x3dbb44f5	0.09144012
69	0xbdff1403	-0.12454989
70	0xbce37ee0	-0.02777046
71	0xbc8e306f	-0.01735708
72	0xbdb4d865	-0.088303365
73	0xbdc6ef6f	-0.09713637
74	0x3dd79ab3	0.105275534
75	0x3dd21e95	0.10259739
76	0xbd4e82cd	-0.05041771
77	0xbe318bb5	-0.1733845
78	0x3e08cedf	0.13360165
79	0xbde37dc2	-0.11107971
80	0xbc84ccc0	-0.016210914
81	0xbdb5d9c8	-0.08879429
82	0xbdaa33e6	-0.0831068
83	0x3df4bf4b	0.11950549
84	0x3e1111a3	0.14166884
85	0xbdb3bb5e	-0.08775972
86	0x3dfeb27b	0.12436386
87	0xbddac84e	-0.10682736
88	0xbe160f50	-0.14654279
89	0x3ce9f678	0.028559908
90	0x3ac6b19d	0.0015159134
91	0x3dcff989	0.10155017
92	0x3e02c5e1	0.12770797
93	0xbd88add6	-0.066737816
94	0x3d0b14de	0.033955447
95	0x3d800bab	0.062522255
96	0x3c945716	0.018107932
97	0xbccfedef	-0.02538201
98	0x3d51ac6d	0.05118983
99	0xbe182139	-0.14856423
100	0xbc93419d	-0.017975623
101	0xbdd7286b	-0.10505756
102	0xbe3cafc4	-0.18426424
103	0x3e1b639e	0.1517472
104	0xbde2fedd	-0.110837676
105	0xbd81fb3e	-0.06346749
106	0x3e1e4019	0.15454139
107	0xbdd41973	-0.103564166
108	0xbcdebf0d	-0.02719071
109	0x3e03ed10	0.12883401
110	0x3db14dfe	0.08657454
111	0x3dc262b9	0.09491486
112	0x3d5ad2bf	0.05342364
113	0xbcd32daf	-0.02577862
114	0x3e11fb39	0.1425599
115	0x3e1876c5	0.14889057
116	0xbc9a668a	-0.018847723
117	0xbd83de8a	-0.0643893
118	0xbd3ca3bf	-0.046054598
119	0x3c02baf1	0.007979141
120	0xbe09ab5d	-0.13444276
121	0xbe18b1e0	-0.14911604
122	0xbe363876	-0.17794976
123	0x3de5a49c	0.11213037
124	0x3cfff889	0.03124644
125	0x3da337fa	0.07969661
126	0xbc0e092b	-0.008669178
127	0xbdcb7252	-0.09933914
128	0x3c421691	0.011846201
129	0xbca712f1	-0.020394774
130	0xbd5273c1	-0.051379923
131	0x3df90b27	0.1216033
132	0xbda74f91	-0.08169473
133	0x3c8db7ec	0.017299615
134	0xbdaef274	-0.08542338
135	0xbca3c19d	-0.019989783
136	0x3beaca63	0.0071652397
137	0xbddffd16	-0.10936944
138	0x3da3ea00	0.08003616
139	0xbd2167a1	-0.03940547
140	0xbe00f8a7	-0.12594853
141	0x3e00459f	0.12526558
142	0xbdaf8b12	-0.085714474
143	0x3e24c161	0.16089393
144	0xbd054e37	-0.032545295
145	0x3e240c5c	0.1602034
146	0xbe01fe7f	-0.12694739
147	0xbd6f1fa4	-0.058379784
148	0x3e2ba88e	0.16763517
149	0xbca9a309	-0.020707624
150	0xbd540441	-0.05176187
151	0x3d987839	0.07444806
152	0xbdf8ad47	-0.12142425
153	0x3dea70fd	0.11447332
154	0xbda4053d	-0.080088116
155	0x3e108a47	0.14115249
156	0x3e03219c	0.1280579
157	0x3e14f89b	0.1454796
158	0xbcec4825	-0.028842995
159	0xbccb5ffb	-0.02482604
160	0xbc65624b	-0.014000486
161	0x3db93723	0.090437196
162	0xbe30a170	-0.17249084
163	0x3dc2a715	0.095045246
164	0x3e166eaf	0.1469066
165	0xbda72bff	-0.081626885
166	0x3e0e2184	0.13879973
167	0x3dfa5d63	0.12224843
168	0x3dab9f41	0.08379985
169	0x3bb24012	0.0054397667
170	0x3e0d27db	0.13784735
171	0x3d8a208a	0.067444876
172	0xbcb3e90f	-0.021961717
173	0x3e13f35c	0.14448303
174	0xbe19322a	-0.14960542
175	0xbd8d3c5f	-0.068962805
176	0xbe238d7e	-0.15971944
177	0x3ddedba4	0.10881737
178	0x3dea9ca4	0.11455658
179	0x3e304d45	0.17216976
180	0xbe2ecc95	-0.1707023
181	0x3d576177	0.052583184
182	0xbdad15fe	-0.0845146
183	0xbda7d4af	-0.08194863
184	0xbde0be5a	-0.10973807
185	0xbe3db080	-0.1852436
186	0xbd69298c	-0.056924388
187	0x3d96b9dd	0.07359669
188	0x3ba4a814	0.0050249193
189	0xbdb20d0c	-0.08693895
190	0xbcc8939b	-0.024484446
191	0xbdc4375e	-0.09580873
192	0xbd91ac4d	-0.07112942
193	0x3e11ec64	0.14250332
194	0xbe1040a0	-0.14087152
195	0x3d7eeace	0.062235646
196	0xbe1f5c08	-0.15562451
197	0x3b71969e	0.0036863456
198	0x3d53e979	0.05173633
199	0xbc209516	-0.00980117
200	0x3e0d5b34	0.13804322
201	0x3d388201	0.045045856
202	0xbd0f9b30	-0.035060108
203	0xbe143dfd	-0.14476772
204	0xbdd8415e	-0.10559343
205	0x3daa9715	0.08329598
206	0x3df0e100	0.11761665
207	0x3e034153	0.12817888
208	0xbd4bb78c	-0.04973559
209	0xbe00659e	-0.12538764
210	0x3e1f8bb0	0.1558063
211	0xbe1a244b	-0.15052907
212	0x3d86c304	0.06580165
213	0x3db0e919	0.0863821
214	0x3d89435f	0.06702303
215	0x3e0f3251	0.13984038
216	0x3b662fc3	0.0035123683
217	0xbe109f75	-0.14123328
218	0xbc0ee3a2	-0.008721264
219	0x3ce6e434	0.028184988
220	0xbd1bbadc	-0.03802
221	0x3d957664	0.07297972
222	0x3da83ec8	0.082150996
223	0xbd9bffc0	-0.0761714
224	0xbd370964	-0.04468669
225	0xbd6ff532	-0.058583446
226	0xbd8f47e6	-0.069961354
227	0xbe2b35db	-0.16719763
228	0xbd9682f1	-0.07349194
229	0xbcdbde2e	-0.026839342
230	0xbe11bbad	-0.14231749
231	0xbe153bb5	-0.14573558
232	0x3e174dfe	0.14775845
233	0x3de1e2a2	0.11029555
234	0xbe116f22	-0.1420255
235	0xbdeb7fd6	-0.11498992
236	0x3d96cc71	0.07363213
237	0x3d28882e	0.041145496
238	0xbde02f48	-0.10946518
239	0xbc847d1e	-0.016172942
240	0xbe01e9b7	-0.12686811
241	0xbb884339	-0.004158404
242	0xbe00d833	-0.12582473
243	0xbcc9f29e	-0.024651822
244	0xbc249aff	-0.01004672
245	0xbdd1fdb6	-0.1025347
246	0x3e0db813	0.1383975
247	0xbcbd890a	-0.023136634
248	0x3db809ae	0.08986221
249	0x3c8abae0	0.016934812
250	0xbdc6f6c6	-0.09715037
251	0x3ddb701a	0.10714741
252	0xbc5b570b	-0.013387452
253	0xbdaa171f	-0.08305191
254	0xbc92e3e9	-0.017930942
255	0xbe12e8fa	-0.14346686

actor.2.bias f4 [10]
0	0x3e2fa11f	0.17151307
1	0x3da2a82a	0.07942231
2	0x3dd43444	0.103615314
3	0x3dacd3f7	0.084388666
4	0xbdafcc89	-0.08583934
5	0x3d74eaff	0.059794422
6	0xbd9bee3e	-0.076138005
7	0xbdce8c07	-0.10085302
8	0x3e1504c2	0.14552596
9	0xbe151dd9	-0.14562167

critic.0.weight f4 [32, 64]
0	0x3d873bef	0.06603228
1	0x3d8b108c	0.067902654
2	0xbc584129	-0.013199129
3	0xbb5630a7	-0.0032682808
4	0x3d0a5c5c	0.033779487
5	0xbc664700	-0.014055014
6	0xbdeea3ff	-0.116523735
7	0x3d90efa1	0.070769556
8	0x3d049d85	0.032376785
9	0x3d4e3e5e	0.050352447
10	0x3d8643ef	0.06555926
11	0x3dab03a1	0.083503015
12	0x3d140e07	0.03614619
13	0xbda176d2	-0.07883991
14	0x3dfee618	0.12446231
15	0xbdc12e6e	-0.09432684
16	0x3cc8a7d5	0.024494091
17	0xbd0bcd9a	-0.034131624
18	0x3dcc1e20	0.099666834
19	0x3da07272	0.07834329
20	0xbd523a1d	-0.051324952
21	0x3dd18bfd	0.10231779
22	0x3da5247e	0.08063601
23	0xbdf9e4b3	-0.12201824
24	0x3d810bc2	0.06301071
25	0xbcc04fc8	-0.023475543
26	0xbdb080cf	-0.08618318
27	0x3e0051a3	0.12531142
28	0x3df1e6b8	0.11811584
29	0x3b964826	0.0045862375
30	0xbde2ac84	-0.11068061
31	0x3aa53033	0.0012602865
32	0x3d86d7ac	0.06584105
33	0x3cbbc5d0	0.022921473
34	0xbdf9707e	-0.12179659
35	0x3de8bce6	0.113641545
36	0x3c4a6504	0.012353186
37	0xbd09a4b8	-0.033604354
38	0xbdcb68b6	-0.099320814
39	0x3d8a7794	0.06761089
40	0x3d3f7616	0.046743475
41	0x3d8f9ebb	0.07012697
42	0x3daee67a	0.08540054
43	0x3d133ce9	0.03594676
44	0xbdcd68e8	-0.10029775
45	0xbdb5c7cd	-0.088759996
46	0x3df16d2d	0.11788402
47	0x3d4fdeeb	0.0507497
48	0xbdf19934	-0.11796799
49	0xbdaa2b35	-0.08309022
50	0x3dd303cc	0.103034586
51	0xbd556cae	-0.0521056
52	0x3d0e43d6	0.034732662
53	0xbce1c76d	-0.027560914
54	0x3d4cfa55	0.050043423
55	0xbcf1254f	-0.029436735
56	0x3d1eb5b2	0.038747497
57	0xbd9b0a83	-0.07570364
58	0x3da618d1	0.08110202
59	0xbd6fcc9f	-0.05854475
60	0xbdfb586a	-0.12272723
61	0x3d08ec6c	0.033428594
62	0x3d2f9499	0.042866323
63	0xbd8fd8e9	-0.07023794
64	0xbd1ee995	-0.03879698
65	0x3dd5b795	0.10435406
66	0xbca26735	-0.019824604
67	0x3d93d48b	0.07218274
68	0x3dd4fe93	0.10400119
69	0x3d7f26f9	0.062293027
70	0x3d93c2a1	0.07214857
71	0xbdcd78cf	-0.10032808
72	0xbd9469cd	-0.072467424
73	0xbcd44c79	-0.025915371
74	0xbd150270	-0.036379278
75	0xbc307446	-0.010769909
76	0x3da9f921	0.08299471
77	0xbde9a814	-0.114090115
78	0x3da4f12a	0.08053811
79	0x3de8aa53	0.11360612
80	0x3dad0ccd	0.08449707
81	0x3dbe0550	0.09278357
82	0x3dd40128	0.10351783
83	0xbca07799	-0.019588279
84	0xbd14486a	-0.036201872
85	0xbdd65c52	-0.104668275
86	0x3db9311e	0.090425715
87	0x3cceb22a	0.02523144
88	0xbc03efd7	-0.008052788
89	0xbd8d6e5a	-0.069058135
90	0x3c2329e0	0.009958714
91	0xbd9dbe4d	-0.077023126
92	0xbe012232	-0.126107
93	0xbd2c2c99	-0.04203472
94	0x3d0a81f5	0.033815343
95	0xbddc4c19	-0.10756702
96	0x3de357d6	0.11100738
97	0x3d114120	0.0354625
98	0xbd6f307b	-0.058395844
99	0xba84beea	-0.0010127698
100	0xbd2ca614	-0.042150572
101	0x3db76d89	0.08956439
102	0xbdb50a97	-0.088399105
103	0x3ddb079f	0.10694813
104	0xbd9ab503	-0.075540565
105	0x3dd47cfe	0.10375403
106	0xbd9f692b	-0.07783731
107	0xbdc48016	-0.09594743
108	0xbd5b69ad	-0.053567577
109	0xbc2ae360	-0.010430187
110	0xbd40e3d3	-0.04709227
111	0xbde3db78	-0.11125845
112	0xbde349ed	-0.110980846
113	0x3decb528	0.1155799
114	0xbdee2c7d	-0.11629579
115	0x3cec3e89	0.028838413
116	0xbdf37023	-0.11886623
117	0x3ded1ca2	0.11577727
118	0xbda369fa	-0.07979198
119	0x3de4c048	0.11169487
120	0x3dca9120	0.09890962
121	0xbde5c99b	-0.11220094
122	0xbd84648e	-0.06464492
123	0xbd5a5ea5	-0.053312916
124	0x3d8eb44d	0.069679834
125	0xbcad0f4b	-0.021125456
126	0x3c657fbf	0.014007508
127	0xbd6c0a59	-0.057627056
128	0xbcff656b	-0.03117629
129	0x3dbba204	0.091617614
130	0xbdcb5aaf	-0.09929406
131	0x3bc9365b	0.006140513
132	0x3d33004e	0.043701462
133	0xbc234610	-0.009965435
134	0x3d266d7f	0.040631767
135	0xbd8a6019	-0.067566104
136	0xbd7b9a9a	-0.061426736
137	0x3db3400f	0.087524526
138	0xb9502cfc	-0.00019853184
139	0x3d65ea3c	0.056131586
140	0xbda38a3f	-0.07985353
141	0xbdefcd02	-0.11709024
142	0xbd51dcc6	-0.051235937
143	0x3deefb4f	0.11669027
144	0x3dc50d9c	0.096217364
145	0x3de0c042	0.1097417
146	0xbdf47d35	-0.11937944
147	0x3da3df61	0.080015905
148	0xbd942919	-0.07234401
149	0x3da48f36	0.08035128
150	0xbcd937f5	-0.02651594
151	0x3de4654f	0.111521356
152	0xbda96aa6	-0.08272295
153	0xbdaa09b2	-0.083026305
154	0xbd783807	-0.060600307
155	0x3bc663fa	0.0060543986
156	0xbcacedb6	-0.021109443
157	0x3db6de9b	0.089291774
158	0x3db56d86	0.088587806
159	0xbd09e8d8	-0.033669323
160	0x3d208a43	0.039194357
161	0x3d73cf57	0.059523907
162	0x3d2f8c5a	0.04285846
163	0xbc434c53	-0.011920053
164	0xbd93c303	-0.0721493
165	0x3dadb9c7	0.084827
166	0x3dfe62b9	0.124211736
167	0xbd808807	-0.06275945
168	0x3dc5b966	0.096545026
169	0xbc800a83	-0.015630012
170	0x3cbc9af7	0.023023112
171	0xbcb7864d	-0.022402907
172	0x3a5e8276	0.0008488068
173	0x3c6922d7	0.014229498
174	0xbd8b5f0e	-0.068052396
175	0x3d1fa7d9	0.03897843
176	0x3d40e140	0.047089815
177	0x3dc1c08d	0.09460554
178	0x3d98d2ee	0.07462107
179	0xbd26e07d	-0.040741432
180	0xbe08fc38	-0.13377464
181	0x3c9ee6a5	0.01939709
182	0xbca47902	-0.020077232
183	0x3dd88ff5	0.105743326
184	0x3dec29e8	0.115314305
185	0x3dbd8d65	0.092554845
186	0x3ddce5a3	0.10785987
187	0x3cc74d47	0.02432884
188	0x3c7bc5e2	0.015367003
189	0xbdbb7f5f	-0.091551535
190	0xbca009d7	-0.019535942
191	0x3d15d7b0	0.03658265
192	0xbdf6e0d4	-0.12054601
193	0x3d965e53	0.0734221
194	0x3d89ba5a	0.06724997
195	0xbdd045f0	-0.101695895
196	0x3c58e375	0.013237824
197	0x3d8c3630	0.06846273
198	0x3de4e297	0.11176031
199	0x3cd626af	0.026141493
200	0xbd448513	-0.047978472
201	0x3da5db54	0.08098474
202	0xbdc5bbfc	-0.09654996
203	0xbd816d17	-0.06319635
204	0x3d015663	0.031576525
205	0xbd5a1d3d	-0.05325054
206	0x3d9f1071	0.07766808
207	0x3d62054f	0.055180844
208	0xbd2dacf9	-0.042401288
209	0xbde37d4a	-0.11107881
210	0xbdd51458	-0.10404271
211	0x3c269091	0.010166303
212	0x3c669f8c	0.014076125
213	0x3c5e047f	0.013550877
214	0xbdd87226	-0.10568647
215	0x3d45a3be	0.04825186
216	0xbddc2d0e	-0.10750781
217	0x3cb0aa99	0.021565722
218	0xbd02b5af	-0.03191155
219	0xbd83aeb9	-0.0642981
220	0xbd5c0e20	-0.05372441
221	0xbcfebc88	-0.031095758
222	0xbcd954b3	-0.026529646
223	0xbd81d814	-0.06340042
224	0xbde88294	-0.11353031
225	0xbda4c545	-0.08045439
226	0x3d382c9a	0.04496441
227	0x3d95b160	0.07309222
228	0xbdb8f729	-0.09031517
229	0xbd9bb257	-0.07602375
230	0xbd16ce00	-0.03681755
231	0xbd211e47	-0.039335515
232	0xbb473879	-0.003039865
233	0x3d1488bf	0.036263224
234	0x3db1dcfa	0.08684726
235	0xbc94230f	-0.018083123
236	0xbdac3a6c	-0.084095806
237	0xbdabd276	-0.083897516
238	0x3d02000f	0.031738337
239	0x3cb47a37	0.022030933
240	0xbd8389d4	-0.06422773
241	0x394c2e82	0.00019472282
242	0x3dd6e3bd	0.104926564
243	0x3df6659d	0.120311
244	0xbccffcf0	-0.025389165
245	0x3db2cbf5	0.08730308
246	0xbb30f89b	-0.002700365
247	0xbdb8c523	-0.09021976
248	0x3cd98da1	0.026556792
249	0xbba5c273	-0.0050585805
250	0x3c336d3e	0.010951338
251	0xbdae059c	-0.08497164
252	0x3b78531b	0.0037891332
253	0xbda400e3	-0.08007982
254	0x3df0a92c	0.11751017
255	0xbdb3fdce	-0.08788644

critic.0.bias f4 [32]
0	0x3d2d57ae	0.042319946
1	0xbddab52c	-0.10679087
2	0x3dbceab4	0.092244536
3	0x3bb628d5	0.005559067
4	0xbd9a9f9a	-0.07549973
5	0x3c0bdbb9	0.008536273
6	0x3cd750a3	0.026283568
7	0x3d1de886	0.03855183
8	0xbd931427	-0.07181578
9	0x3dfda4f8	0.12384981
10	0x3dc6de38	0.097103536
11	0x3ddffe4b	0.109371744
12	0xbbd7548c	-0.006571358
13	0xba6e0ac4	-0.00090805837
14	0xbdc6c57c	-0.09705636
15	0x3def203b	0.11676069
16	0xbca85a90	-0.020550996
17	0xbcfc79b6	-0.030819755
18	0xbd099868	-0.03359261
19	0xbda81c13	-0.0820848
20	0xbdd2d3c4	-0.10294297
21	0xbb59a053	-0.0033207133
22	0xbdd393f3	-0.103309534
23	0xbd8826df	-0.06648039
24	0x3da2766e	0.07932745
25	0x3d48b4fb	0.04900072
26	0xbdba3b03	-0.09093287
27	0xbca3bfe1	-0.019988956
28	0xbd58d034	-0.052932933
29	0x3d2ad481	0.041706566
30	0xbc1d1a8c	-0.009588849
31	0x3d520575	0.051274735

critic.2.weight f4 [1, 32]
0	0x3d2fd32d	0.042926002
1	0x3d15d180	0.036576748
2	0x3decb8cd	0.115586855
3	0x3d84922a	0.06473191
4	0xbe2da79f	-0.16958474
5	0x3e152fe9	0.14569058
6	0xbe099e45	-0.13439281
7	0x3dcb2c9b	0.09920617
8	0xbc653b38	-0.01399117
9	0x3dae5c4b	0.08513697
10	0xbd90b6af	-0.07066094
11	0xbc9b2673	-0.018939232
12	0xbd3ed063	-0.04658545
13	0x3e1fd610	0.15609002
14	0xbdd6d6df	-0.10490202
15	0x3ddff491	0.10935319
16	0xbe16739c	-0.14692539
17	0x3d5cf152	0.05394108
18	0xbe0c05dd	-0.13674112
19	0xbdc57aef	-0.09642588
20	0x3dbb9298	0.0915882
21	0x3dd6dd51	0.104914315
22	0xbcbe7316	-0.023248237
23	0xbe0d44e0	-0.13795805
24	0xbe0974ca	-0.13423458
25	0x3d0a1288	0.03370908
26	0x3dc9929d	0.098424174
27	0x3d7a821e	0.061159246
28	0xbe2164c1	-0.15761091
29	0xbda3abed	-0.079917766
30	0x3d887eac	0.06664786
31	0x3df841f6	0.12121956

memory_a.rnn.weight_ih_l0 f4 [256, 41]
0	0xbd2f6316	-0.042819105
1	0x3c984ce5	0.018591354
2	0xbd44d2ae	-0.048052482
3	0xbd06d736	-0.032920085
4	0xbd506d6d	-0.050885607
5	0x3d24ebcd	0.04026394
6	0xbcb7eafb	-0.022450915
7	0x3cbd04eb	0.023073634
8	0xbcfc9377	-0.030832035
9	0x3d6e3963	0.058160197
10	0xbd34e485	-0.044163246
11	0xbc406b7d	-0.011744377
12	0xbc5cdcae	-0.0134803485
13	0xbd871e29	-0.065975495
14	0x3bfd17f6	0.0077238036
15	0xbbb9d752	-0.00567142
16	0x3ca92626	0.020648073
17	0x3d09e332	0.033663936
18	0xbd969f1b	-0.07354566
19	0xbdaec999	-0.085345455
20	0x3da69371	0.08133591
21	0xbc1abee5	-0.009444927
22	0xbd8d5c7a	-0.06902404
23	0x3dd23abd	0.1026511
24	0x3d44063d	0.04785751
25	0x3e07d1c1	0.13263609
26	0xbe119dfa	-0.1422042
27	0x3d594bc3	0.053050768
28	0xbe004dff	-0.12529753
29	0xbda045bc	-0.07825801
30	0x3d1bf309	0.038073573
31	0x3cd07fa2	0.025451485
32	0x3c7fa409	0.015603074
33	0x3d589c36	0.05288335
34	0xbd86fb9b	-0.06590959
35	0xbd40e7fb	-0.047096234
36	0xbce8ee0d	-0.028433824
37	0x3d166389	0.036716018
38	0x3c657dfa	0.014007086
39	0xbda7b06c	-0.08187947
40	0x3dc28f57	0.09499996
41	0xbdad3c58	-0.08458775
42	0x3dac8c28	0.0842517
43	0xbe0e16df	-0.13875912
44	0xbdf8b8cb	-0.121446215
45	0xbd2bf67f	-0.041983124
46	0x3deb6fe0	0.11495948
47	0xbcef148a	-0.029184598
48	0xbc21cceb	-0.009875516
49	0x3dff01bf	0.12451505
50	0x3ca5ae30	0.02022466
51	0x3dc3cec7	0.09560924
52	0x3de70b94	0.11281505
53	0xbd0ded6c	-0.03465025
54	0x3cfda4e0	0.030962408
55	0xbddee35c	-0.10883209
56	0x3d9a3551	0.075297005
57	0xbb944630	-0.0045249686
58	0x3dcb0dc6	0.099147364
59	0xbddb5daa	-0.107112244
60	0x3d0061c2	0.03134323
61	0xbcc2091a	-0.02368598
62	0x3dc51c51	0.096245416
63	0x3dec9aae	0.1155294
64	0xbdc59c7a	-0.09648986
65	0xbd552cc9	-0.052044664
66	0xbdb0d77a	-0.08634849
67	0xbd8db1d1	-0.069186814
68	0x3c81b4eb	0.015833339
69	0xbd1f2ff7	-0.038864102
70	0x3ce7e922	0.028309409
71	0x3dad724b	0.08469065
72	0xbd7f8b11	-0.062388483
73	0xbdcea3b2	-0.10089816
74	0x3d50ff3c	0.05102466
75	0xbd8b0645	-0.06788305
76	0xbdf7351e	-0.12070678
77	0xbdc23786	-0.094832465
78	0x3d2b7733	0.041861724
79	0xbdda3fe5	-0.10656718
80	0x3c1d6b9b	0.009608175
81	0x3e0df638	0.13863456
82	0xbcecf8b1	-0.028927179
83	0x3dcf4a71	0.101216204
84	0x3dc1602e	0.09442173
85	0xbd9699c2	-0.07353546
86	0x3db5d3dc	0.088782996
87	0x3d796188	0.06088403
88	0x3b9c69e7	0.0047733667
89	0xbdcbc6aa	-0.099500015
90	0x3e03cb97	0.12870632
91	0xbdd617be	-0.10453747
92	0x3db1e09e	0.086854205
93	0xbe001f3c	-0.12511915
94	0xbbbfb6c1	-0.0058506434
95	0x3dcf772c	0.10130152
96	0x3c58a691	0.013223306
97	0xbd9bea60	-0.07613063
98	0xbdaf2167	-0.08551293
99	0x3dcf594c	0.10124454
100	0xbc7de7a5	-0.015497123
101	0x3dcc687e	0.09980868
102	0x3d1a587f	0.037682053
103	0x3dadd49e	0.08487819
104	0xbd39226e	-0.04519885
105	0x3d9cc038	0.0765385
106	0xbba429da	-0.005009872
107	0x3dca5638	0.09879726
108	0xbcb7e0a2	-0.02244598
109	0x3e105528	0.14094985
110	0x3dde9eb5	0.10870115
111	0xbe024a71	-0.1272371
112	0x3d48b1b9	0.048997615
113	0x3c7937bd	0.015211043
114	0xbaeebfd0	-0.0018215124
115	0x3d1da75d	0.03848969
116	0x3dbadbe2	0.091239706
117	0xbca66139	-0.020310031
118	0x3dcad3b0	0.099036574
119	0x3dbacd27	0.09121161
120	0x3d04f9cd	0.03246479
121	0xbd86433f	-0.06555795
122	0x3dbda3c0	0.092597485
123	0x3daa58a0	0.08317685
124	0xbbf2a178	-0.0074045025
125	0xbddc7c98	-0.10765952
126	0xbca4403c	-0.02005016
127	0x3d8c9d3b	0.06865927
128	0xbdb28829	-0.08717377
129	0x3d2e1943	0.04250456
130	0xbdd0d0fe	-0.10196112
131	0xbc834602	-0.016024593
132	0x3ce79c42	0.028272752
133	0x3d691ffd	0.056915272
134	0xbd6b0949	-0.057381902
135	0xbda79d48	-0.08184296
136	0xbb72a693	-0.0037025556
137	0x3bcbf1e2	0.006223903
138	0xbdb6ff46	-0.08935408
139	0xbd212cb3	-0.03934927
140	0xbdd49915	-0.103807606
141	0xbcd5b332	-0.026086424
142	0x3d6dbcab	0.058041256
143	0xbd623a48	-0.055231363
144	0x3ceffe0b	0.029295942
145	0x3d8dfb38	0.06932682
146	0xbd6557eb	-0.05599205
147	0x3dd64bcf	0.10463678
148	0x3cd869d3	0.026417648
149	0x3db77b59	0.089590736
150	0xbdab9d39	-0.08379597
151	0x3d09d16e	0.033646993
152	0xbe1384bc	-0.14406103
153	0xbcb82a24	-0.022481032
154	0x3d3e4fa9	0.04646269
155	0xbd85cafa	-0.06532855
156	0xbdbe63d2	-0.09296383
157	0xbda3391b	-0.079698764
158	0xbd437e4f	-0.04772788
159	0x3da7aa95	0.08186833
160	0x3cbcab94	0.023031034
161	0xbd2d3201	-0.042284016
162	0x3c3cead3	0.011530596
163	0xbdb74509	-0.08948714
164	0xbdd1b56f	-0.10239684
165	0xbca173f4	-0.019708611
166	0xbd16f0c4	-0.036850706
167	0x3bb10ee1	0.005403385
168	0x3d2d9190	0.042375147
169	0xbde2665e	-0.11054681
170	0xbd6cd40c	-0.05781941
171	0xbd477c29	-0.048702393
172	0xbd6b506c	-0.057449743
173	0x3cc85bf2	0.024457905
174	0x3cf99e4a	0.030470986
175	0xbcb66805	-0.022266397
176	0xbd2e1d6f	-0.04250854
177	0x3de9e595	0.114207424
178	0xbe119a80	-0.14219093
179	0xbdcc7be0	-0.09984565
180	0xbdbc23a5	-0.09186486
181	0x3d512860	0.051063895
182	0xbde2a848	-0.11067253
183	0x3d128c19	0.03577814
184	0xbce11626	-0.027476382
185	0xbddcc63b	-0.10779997
186	0xbdf60e62	-0.12014462
187	0xbd41a3f9	-0.047275517
188	0x3d04565a	0.032308914
189	0xbdb66ae5	-0.08907107
190	0x3b458f6c	0.00301453
191	0xba7ea447	-0.000971381
192	0x3d01f951	0.031731907
193	0xbdaa0614	-0.083019406
194	0xbd5f8774	-0.054572538
195	0x3d54465a	0.051824905
196	0x3cd8899a	0.026432801
197	0xbc350387	-0.011048204
198	0x3d18ff5d	0.03735291
199	0x3dacca0b	0.08436974
200	0x3d48e4bf	0.049046274
201	0x3d3faeea	0.04679767
202	0xbd5bef88	-0.05369523
203	0x3d9e60c9	0.07733304
204	0xbcbf4276	-0.02334712
205	0x3da3aee8	0.07992345
206	0xbcc32c63	-0.023824876
207	0xbdb378d3	-0.0876328
208	0xbdbd688e	-0.09248458
209	0x3b3cad3e	0.0028789784
210	0x3c010d4e	0.007876707
211	0xbaa6ad4b	-0.001271644
212	0x3db01784	0.08598235
213	0xbdcbf2d1	-0.09958423
214	0xbb0aaf41	-0.0021161588
215	0x3e0583e0	0.13038588
216	0xbd017330	-0.031603992
217	0xbd9b5640	-0.0758481
218	0x3cd72d1d	0.026266629
219	0xbe00180e	-0.12509176
220	0xbd71a844	-0.05899836
221	0xbd3c613a	-0.04599116
222	0x3de87ecf	0.11352312
223	0x3ce56c09	0.028005617
224	0xbda09af6	-0.078420565
225	0x3d8e7bdd	0.06957219
226	0xbdfc1229	-0.12308151
227	0xbd7ee1bc	-0.062226996
228	0xbcd6f6bf	-0.026240705
229	0xbbdf114f	-0.0068074833
230	0x3dc23e73	0.094845675
231	0x3d81267d	0.06306169
232	0x3e03a485	0.12855728
233	0xbd2af3bd	-0.041736353
234	0x3dbd3d96	0.09240262
235	0xbb016ef4	-0.001974997
236	0xbdb04b11	-0.08608068
237	0xbca6f19c	-0.02037888
238	0x3c98bbc4	0.018644221
239	0x3dcef590	0.10105431
240	0x3debdf75	0.115172304
241	0xbdd39527	-0.10331183
242	0x3dd35fd7	0.103210144
243	0x3d87b8f8	0.06627077
244	0xba4894dd	-0.0007651577
245	0xbe02cbfa	-0.12773123
246	0x3c5b1291	0.013371126
247	0x3c12a8d8	0.008951388
248	0xbd9c497f	-0.07631206
249	0xbdaa34cc	-0.083108515
250	0xbd8c1f48	-0.06841904
251	0xbafaf6e6	-0.0019147068
252	0x3cbcf022	0.023063723
253	0x3dcaae3a	0.09896512
254	0x3d994491	0.07483781
255	0xbca17291	-0.01970795

memory_a.rnn.weight_hh_l0 f4 [256, 64]
0	0xbd00244a	-0.031284608
1	0x3c481b88	0.012213595
2	0x3de60657	0.11231678
3	0xbcbb5816	-0.022869151
4	0xbda79a61	-0.08183742
5	0xbd802ebe	-0.06258915
6	0xbc91c01e	-0.017791804
7	0x3d2bc334	0.041934207
8	0xbdc84cf0	-0.097803
9	0x3d664c57	0.056225147
10	0xbd67c4e2	-0.056584246
11	0x3c2002a6	0.009766256
12	0xbd9d8f4a	-0.07693346
13	0xbe045bca	-0.1292564
14	0xbc58e4c7	-0.0132381385
15	0x3d2920b3	0.04129095
16	0x3ddd1265	0.10794524
17	0xbda61842	-0.081100956
18	0xbcff4410	-0.031160384
19	0xbd96b76a	-0.07359202
20	0x3cb65de1	0.022261562
21	0xbcb8d519	-0.02256255
22	0x3d53670a	0.051611938
23	0xbdacd010	-0.08438122
24	0x3d36e7ba	0.044654585
25	0xbd074c90	-0.033032
26	0xbdf0c747	-0.11756759
27	0x3d6c942b	0.05775849
28	0x3cb634d7	0.022241993
29	0xbc6cd77b	-0.014455671
30	0xbe044641	-0.12917425
31	0x3dcc67ac	0.09980711
32	0xbdd0bfc5	-0.10192827
33	0xbda7999d	-0.08183596
34	0x3d02fb56	0.031977974
35	0x3db92f4b	0.090422235
36	0xbdae26ba	-0.0850348
37	0xbd96029d	-0.07324717
38	0x3d8aa7cc	0.06770286
39	0xbdae7f6c	-0.085203975
40	0xbdc00b33	-0.09377136
41	0xbc1b8592	-0.009492295
42	0x3d40ad55	0.047040302
43	0xbd8e0308	-0.06934172
44	0x3d172ed9	0.03690991
45	0x3e03a70f	0.12856697
46	0xbdba730d	-0.091039754
47	0x3cf4b79e	0.029872712
48	0xbdcff900	-0.10154915
49	0x3dd79940	0.10527277
50	0xbd86f47f	-0.06589603
51	0x3c817892	0.015804563
52	0x3d8a5dd3	0.06756177
53	0xbd4044ab	-0.046940487
54	0xbcdc7766	-0.026912402
55	0xbc601cad	-0.013678712
56	0x3d136d3c	0.035992846
57	0x3dc13dba	0.094356015
58	0xbddb088f	-0.10694992
59	0x3d7c99fe	0.061670296
60	0x3ccd5b75	0.025068024
61	0x3d994f96	0.07485883
62	0xbd2e5d50	-0.04256946
63	0x3daad17e	0.08340739
64	0xbdd01cad	-0.101617195
65	0xbd75d2d5	-0.06001552
66	0x3dac6c0f	0.08419048
67	0xbe0310fd	-0.1279945
68	0xbdc15bd6	-0.094413444
69	0x3e00c4aa	0.12575021
70	0xbc73dade	-0.014883725
71	0xbcd56fbe	-0.02605426
72	0x3dbf48a8	0.0934003
73	0x3d5fe393	0.05466039
74	0x3e05f681	0.13082315
75	0x3d95c4fc	0.073129624
76	0x3ca47daf	0.020079462
77	0xbd1baa70	-0.03800434
78	0x3c0a5264	0.008442495
79	0xbd3c106e	-0.045914106
80	0x3d5c72d7	0.053820457
81	0x3db59627	0.0886653
82	0xbdc86ea7	-0.0978673
83	0xbdf20721	-0.11817766
84	0x3d9169db	0.071002685
85	0x3d793111	0.06083781
86	0x3da2e34d	0.079535104
87	0xbdaa35e5	-0.08311061
88	0x3d16d15e	0.03682076
89	0x3dff635b	0.124701224
90	0xbdaeec77	-0.08541196
91	0x3c224570	0.0099042505
92	0x3c9d39d9	0.019192623
93	0x3dd81477	0.10550778
94	0xbd13f761	-0.03612459
95	0xbd73c973	-0.05951829
96	0x3c47c94a	0.012193987
97	0xbdcc5868	-0.099778
98	0x3dd5ff3b	0.10449072
99	0x3d953297	0.0728504
100	0x3dd218bd	0.10258625
101	0xbd393c18	-0.045223325
102	0x3dbae841	0.0912633
103	0xbda717e7	-0.08158856
104	0x3dd0c9d2	0.10194744
105	0xbdfa0230	-0.122074485
106	0xbb9e0b91	-0.004823156
107	0xbd61a90b	-0.055092853
108	0xbb384e92	-0.0028123003
109	0x3df9a3a0	0.12189412
110	0xbde549c9	-0.11195714
111	0x3d1c1897	0.03810939
112	0x3c00e90a	0.007868061
113	0xbdbe7784	-0.093001395
114	0xbb256e42	-0.002524272
115	0x3d9e8cfe	0.07741736
116	0xbdd0ecd5	-0.10201422
117	0x3d90b9f5	0.070667185
118	0xbd92f643	-0.07175877
119	0x3c44b817	0.012006781
120	0xbd90c225	-0.0706828
121	0xbda29112	-0.07937826
122	0x3d908757	0.07057064
123	0xbcdc88d8	-0.026920721
124	0xbd64cd72	-0.05585999
125	0xbdab15ab	-0.08353742
126	0xbd5259b5	-0.051355083
127	0xbd3e0015	-0.046386797
128	0x3ca50b5d	0.02014702
129	0xbde8657a	-0.1134748
130	0x3c83fb2f	0.016110985
131	0xbb6ed3d7	-0.0036442184
132	0x3d76f102	0.060288437
133	0xbde178ad	-0.11009345
134	0xbd661a6f	-0.056177553
135	0x3dd3f7ef	0.10350024
136	0xbdd084f1	-0.101816066
137	0xbdc270ed	-0.09494195
138	0xbdc820f0	-0.09771907
139	0x3d4550d3	0.048172783
140	0x3de64904	0.112443954
141	0x3e0808ae	0.13284561
142	0x3d104c54	0.035229042
143	0x3df5a9e0	0.11995292
144	0xbd5c9502	-0.053853042
145	0x3d3f1df8	0.04665944
146	0xbd2a6740	-0.041602373
147	0xbdb8c589	-0.09022052
148	0xbde86561	-0.113474615
149	0x3d23f044	0.040024057
150	0x3dd23994	0.102648884
151	0x3dc42139	0.09576649
152	0xbd2c5671	-0.042074624
153	0xbdd90dfe	-0.10598372
154	0x3db5a34e	0.088690385
155	0xbd531f2d	-0.051543403
156	0x3e015608	0.12630475
157	0xbd853d52	-0.065058365
158	0x3be2870a	0.0069130706
159	0xbd55d426	-0.052204274
160	0xbdca99d0	-0.09892619
161	0x3d50c875	0.05097242
162	0xbdb6f367	-0.08933144
163	0x3db5c1c4	0.088748485
164	0x3da24244	0.079227954
165	0xbdf2db15	-0.11858193
166	0xbdb6fef4	-0.08935347
167	0xbd54455c	-0.05182396
168	0x3ce77182	0.028252367
169	0xbd9b5bce	-0.0758587
170	0xbd981be2	-0.07427193
171	0x3db878fe	0.090074524
172	0xbd4d8c5e	-0.050182693
173	0x3d12454a	0.03571061
174	0x3d629f36	0.055327617
175	0x39871022	0.00025761226
176	0xbd17ed6d	-0.03709166
177	0xbe07c2cd	-0.13257904
178	0x3d527c68	0.051388174
179	0xbdaf1d02	-0.08550455
180	0xbd9d7b8a	-0.07689579
181	0x3db44e0a	0.08803947
182	0xbd93c98d	-0.07216177
183	0xbd971d90	-0.073786855
184	0xbc324354	-0.01088031
185	0x3dba93a9	0.09110195
186	0xbd53f353	-0.051745724
187	0x3db55385	0.08853821
188	0xbd3070c1	-0.04307628
189	0x3ce3d4c0	0.027811408
190	0x3dd0fb37	0.102041654
191	0x3dc2a7e7	0.09504681
192	0xbd228d56	-0.03968557
193	0xbdd67f04	-0.10473445
194	0xbde2b057	-0.110687904
195	0x3d333306	0.04374983
196	0x3d8262a9	0.06366474
197	0x3d2a5f43	0.041594755
198	0x3dbc52fb	0.09195515
199	0x3dbee607	0.09321218
200	0x3ce3ea21	0.027821602
201	0x3da83610	0.082134366
202	0x3d104e3f	0.03523087
203	0x3d241a3c	0.04006408
204	0x3d928ef3	0.07156172
205	0xbd66d335	-0.056353766
206	0xbcce9125	-0.025215695
207	0x3d0859bc	0.033288702
208	0x3c8e6465	0.017381856
209	0x3d2bb67c	0.041922078
210	0x3c46d803	0.012136462
211	0x3e041dd1	0.12901999
212	0xbc469cb0	-0.012122318
213	0x3d25d491	0.040485922
214	0xbd25a318	-0.04043874
215	0xbd5aedfd	-0.05344962
216	0x3bc8c46a	0.00612693
217	0xbd3b6eb0	-0.045759857
218	0x3bf230e6	0.007391083
219	0xbe053b6e	-0.13010952
220	0xbe061bf4	-0.13096601
221	0xbd0e1de7	-0.034696486
222	0x3d7b2bde	0.061321132
223	0x3c30821e	0.01077321
224	0xbd78a1b0	-0.060701072
225	0xbcae1b79	-0.021253334
226	0xbd15eec9	-0.036604676
227	0x3dcd5781	0.10026456
228	0x3b0b2eb3	0.0021237552
229	0x3db3944c	0.0876852
230	0xbd983b68	-0.07433206
231	0x3b53e0e4	0.003233009
232	0x3de06d4d	0.109583475
233	0x3d8566c2	0.0651374
234	0xbdcec4e1	-0.100961454
235	0x3df7a39d	0.12091754
236	0x3c808ba6	0.01569159
237	0x3d9e35a3	0.07725074
238	0x3b3b1d48	0.0028551389
239	0x3e10fa87	0.14158069
240	0x3da21102	0.079134
241	0xbd0534cb	-0.03252105
242	0x3d3d8416	0.046268545
243	0xbd5041ea	-0.05084411
244	0x3df881a6	0.121341035
245	0x3da652a6	0.08121233
246	0x3dc7972f	0.09745633
247	0xbc94ad41	-0.01814902
248	0x3b439d40	0.0029848367
249	0xbd103384	-0.03520538
250	0xbd206ac4	-0.03916432
251	0x3d8dfd90	0.06933129
252	0x3d758ea6	0.059950493
253	0x3de0fd71	0.1098584
254	0xbdad1818	-0.08451861
255	0xbc4b608f	-0.012413158

memory_a.rnn.bias_ih_l0 f4 [256]
0	0xbd97b8bd	-0.07408283
1	0x3d121e24	0.035673276
2	0xbdb121af	-0.08649003
3	0x3d2fb6e1	0.042899016
4	0x3dcc7e7e	0.09985064
5	0x3ca26e0e	0.019827869
6	0x3daa4de4	0.08315638
7	0x3c3c73fb	0.011502261
8	0xbde31555	-0.11088053
9	0x3d8d3167	0.068941884
10	0x3dc4334f	0.09580099
11	0xbd9deb16	-0.07710855
12	0xbdab7902	-0.0837269
13	0x3d5af4f5	0.053456265
14	0x3d95c42b	0.07312807
15	0xbdffcb39	-0.124899335
16	0xbd9893d1	-0.07450069
17	0x3c8189f2	0.015812848
18	0xbd24388a	-0.040092982
19	0x3b50ec8d	0.0031879277
20	0xbd93c911	-0.07216085
21	0xbdc10f18	-0.09426707
22	0xbcaba2fb	-0.020951739
23	0x3d6a02ba	0.057131507
24	0xbdada960	-0.08479571
25	0xbde7208e	-0.11285506
26	0xbd52246c	-0.051304266
27	0xbcdce884	-0.02696634
28	0xbd387958	-0.045037597
29	0x3bc67c4c	0.006057298
30	0x3cdebfe8	0.027191117
31	0xbd9006f0	-0.07032573
32	0x3df39100	0.11892891
33	0x3d550e5c	0.052015647
34	0xbddfd33a	-0.1092896
35	0x3d138d7c	0.036023602
36	0xbd9ae8e4	-0.075639516
37	0xbcc53031	-0.024070831
38	0xbdb5100f	-0.088409536
39	0xbda7a61c	-0.0818598
40	0xbd857630	-0.06516683
41	0xbcdd0002	-0.026977543
42	0xbdc2ba3a	-0.09508176
43	0x3de161b7	0.11004966
44	0x3d26bcab	0.04070727
45	0x3ca00b56	0.019536655
46	0xbd766b48	-0.060160905
47	0xbce9f363	-0.028558439
48	0xbd3b0979	-0.04566333
49	0x3cb6c4cb	0.022310635
50	0x3d36a917	0.04459485
51	0x3cecdc4a	0.028913636
52	0x3c836f2a	0.016044218
53	0x3d634cc7	0.055493142
54	0xbcc73af9	-0.024320113
55	0xbce8f10e	-0.028435256
56	0xbccde108	-0.025131717
57	0x3d53b9bd	0.051690806
58	0x3d7764dc	0.06039892
59	0x3de9d586	0.114176795
60	0x3b9182dd	0.004440649
61	0x3cf86e46	0.03032602
62	0xbda48fd5	-0.08035246
63	0x3e00f7a0	0.12594461
64	0x3c1b73e6	0.009488082
65	0xbdc491eb	-0.09598144
66	0x3dc74c45	0.09731344
67	0x3d9acd1b	0.07558652
68	0x3d93a3d6	0.072089836
69	0x3d9b4b5d	0.07582734
70	0xbc5eb443	-0.013592782
71	0xbe06e162	-0.13171914
72	0xbde69cfc	-0.11260411
73	0x3db0f2c4	0.08640054
74	0xbda2b4e8	-0.079446614
75	0xbd90c3e4	-0.07068613
76	0x3b6a8b42	0.003578857
77	0xbdf48c5f	-0.11940836
78	0xbd94c40e	-0.07263957
79	0x3d90440f	0.07044231
80	0x3dc03cae	0.09386574
81	0x3b0c6a2a	0.0021425583
82	0x3ce11fbc	0.027480952
83	0x3da9e2f1	0.08295239
84	0x3bcf88fa	0.0063334676
85	0xbdc22b8e	-0.09480964
86	0x3d25cd84	0.040479198
87	0x3ccc5c68	0.024946406
88	0x3ddb2c44	0.107018024
89	0x3dcc8871	0.09986962
90	0x3d847bc5	0.0646892
91	0x3db1469c	0.08656046
92	0x3dfb0b42	0.12258007
93	0xbd20746d	-0.039173532
94	0xbd008b79	-0.03138301
95	0x3d124366	0.035708807
96	0x3dbf60d8	0.09344643
97	0xbe032f20	-0.12810946
98	0xbdbd7766	-0.09251289
99	0xbde0c0c8	-0.1097427
100	0x3daba3a5	0.08380822
101	0xbd07e312	-0.033175536
102	0xbbee5838	-0.0072737
103	0x3d41c368	0.047305495
104	0xbdb8c909	-0.090227194
105	0x3bebb8f9	0.0071936813
106	0xbcfb8b37	-0.030706031
107	0xbd599297	-0.053118315
108	0xbc9d9498	-0.019235894
109	0xbda217d0	-0.07914698
110	0x3bce8992	0.0063030208
111	0x3bdcdfaf	0.0067405323
112	0xbcd2fa0c	-0.025753997
113	0x3da99014	0.08279434
114	0x3d54e2ce	0.05197411
115	0x3d6d35c6	0.05791261
116	0xbb76d2e1	-0.0037662315
117	0xbdc94541	-0.09827662
118	0x3d84e3ba	0.06488748
119	0xbdfd8a26	-0.12379865
120	0xbdc77291	-0.09738649
121	0x3dc5c61b	0.09656926
122	0x3d1e5204	0.038652435
123	0xbd94febe	-0.07275151
124	0x3c871e8d	0.01649406
125	0x3d104e09	0.03523067
126	0x3d7ba587	0.061437156
127	0xbb727d92	-0.0037001115
128	0xbdb51364	-0.08841589
129	0xbd3bcdac	-0.04585044
130	0xbdcd75fa	-0.10032268
131	0x3d353d1c	0.04424773
132	0xbc016b83	-0.007899168
133	0xbc614b66	-0.013750887
134	0xbda31798	-0.079634845
135	0x3cedba90	0.029019624
136	0xbd1bd1c9	-0.038041864
137	0x3c8700c3	0.016479855
138	0xbda65488	-0.08121592
139	0x3dcdf1d7	0.10055893
140	0xbdd0ebb6	-0.10201208
141	0xbd3e21d4	-0.04641898
142	0xbdde2bba	-0.10848184
143	0xbdf324dd	-0.118722655
144	0xbdc4d8a3	-0.09611633
145	0x3d2c4f53	0.042067837
146	0xbbf62e97	-0.007512878
147	0xbdb964ab	-0.09052404
148	0x3b732ed0	0.003710676
149	0xbdbefdc8	-0.09325749
150	0xbdde2715	-0.10847298
151	0xbce3d387	-0.027810825
152	0x3d954c60	0.07289958
153	0x3d90928e	0.07059203
154	0x3da12fd9	0.07870454
155	0xbd4d2ed0	-0.050093472
156	0x3cc2eb8b	0.023793956
157	0xbd962a31	-0.07332266
158	0x3d2585c7	0.040410783
159	0xbdd0a0eb	-0.10186943
160	0x3deee8a1	0.11665464
161	0xbd99e12c	-0.07513651
162	0x3ddee4b3	0.10883465
163	0x3d90a32e	0.07062374
164	0x3dd76250	0.105167985
165	0x3dbe06ea	0.092786625
166	0xbd350334	-0.044192508
167	0xbb90ff15	-0.0044249394
168	0xbdbec903	-0.09315684
169	0xbdea3656	-0.11436145
170	0x3d33da68	0.04390946
171	0xbdb70ffa	-0.08938594
172	0xbd5b71a2	-0.053575166
173	0xbdc11461	-0.09427715
174	0xbde5fe7f	-0.11230182
175	0x3dcc7046	0.09982352
176	0xbd187959	-0.0372251
177	0x3d8da4a7	0.069161706
178	0x3da620e1	0.0811174
179	0x3da3cee9	0.07998449
180	0xbdf3a3d7	-0.11896484
181	0x3df001b0	0.11719072
182	0xb9619522	-0.00021513228
183	0xbde30f0a	-0.11086853
184	0x3ceec9cf	0.029148964
185	0xbd337e70	-0.043821752
186	0x3de35e37	0.111019544
187	0xbd91ce96	-0.07119481
188	0xbdac1813	-0.08403029
189	0x3d0c1374	0.03419824
190	0x3d3c9569	0.046040926
191	0x3d17ff7b	0.03710888
192	0x3da7b10f	0.08188068
193	0xbd91f8cc	-0.07127532
194	0x3ced5e2d	0.02897557
195	0xbd22b3a7	-0.03972211
196	0x3bc70349	0.0060733897
197	0xbd32c22c	-0.043642208
198	0xbd880513	-0.06641593
199	0xbdf128f5	-0.1177539
200	0x3d0c14bf	0.034199473
201	0x3c858c60	0.016302288
202	0x3d8f9d5e	0.07012437
203	0x3d3a7fc6	0.04553201
204	0x3c87ff06	0.016601097
205	0x3d93638d	0.07196722
206	0xbdb47e78	-0.088131845
207	0xbdc0c6f9	-0.09412951
208	0xbda69dcc	-0.08135566
209	0xbdae68cd	-0.08516083
210	0x3d5167d6	0.051124416
211	0xbd893efe	-0.06701468
212	0x3d39362e	0.045217685
213	0x3c13bae0	0.009016722
214	0x3de88e4f	0.11355268
215	0x3c826044	0.015915044
216	0xbd6ea9a3	-0.058267247
217	0xbe044116	-0.12915453
218	0xbdbb83e9	-0.09156019
219	0x3db08505	0.086191215
220	0x3dc28fd0	0.09500086
221	0x3da2e7fb	0.07954403
222	0x3ddc8275	0.1076707
223	0x3c6a520b	0.014301787
224	0x3a47d2a4	0.00076226355
225	0xbd8349ec	-0.06410584
226	0x3b352a21	0.002764352
227	0xbc0311e1	-0.007999868
228	0x3dbae16a	0.091250256
229	0x3dd25a1e	0.10271095
230	0x3dac6c20	0.08419061
231	0xbd9129c2	-0.07088043
232	0x3c2fe8d1	0.01073666
233	0xbd1a6a9f	-0.037699338
234	0xbdc717ff	-0.09721374
235	0x3cec0832	0.028812502
236	0x3dad8024	0.084717065
237	0x3d6e1c00	0.05813217
238	0x3dc44e02	0.09585191
239	0x3d9568ef	0.07295405
240	0xbd1cf8e2	-0.03832329
241	0x3d1b0a2e	0.037851505
242	0x3d1db91e	0.03850662
243	0xbd4f6d83	-0.050641548
244	0x3cd32e78	0.025778994
245	0xbe16d659	-0.14730205
246	0x3d775a60	0.060388923
247	0xbcc2d3e0	-0.02378267
248	0x3ca003e4	0.019533105
249	0xbe00acec	-0.12565964
250	0xbda43307	-0.08017545
251	0xbddc6e8d	-0.107632734
252	0xbd8c98eb	-0.06865104
253	0x3c3e1106	0.011600738
254	0x3d628380	0.05530119
255	0xbddcaaa2	-0.10774733
