deploy/pre_train/go2/motion.pt (torch, 774664 bytes, 8 tensors)

weight f4 [512, 48]
0	0xbd682069	-0.056671534
1	0xbcf2beb8	-0.029631957
2	0xbd4a09fa	-0.04932592
3	0xb8e9d788	-0.000111504516
4	0x3e8d3ec0	0.27586937
5	0xbe6ea91f	-0.23306702
6	0x3e03e25b	0.12879317
7	0x3e293cf1	0.16527154
8	0x3e16f313	0.14741163
9	0xbe0f54f2	-0.13997248
10	0xbdc8f5cd	-0.09812508
11	0x3ec07ad0	0.37593699
12	0x3e9bdf25	0.30443683
13	0x3cad2ed7	0.021140499
14	0x3d27f89b	0.041008573
15	0x3e6c0e8d	0.23052426
16	0x3e042fb8	0.12908828
17	0xbe0c2aab	-0.13688152
18	0xbd8277d4	-0.06370512
19	0x3da5c430	0.080940604
20	0x3d991ec4	0.07476571
21	0x3d8a36c0	0.06748724
22	0xbc1a65e6	-0.009423709
23	0x3e3f08c3	0.18655686
24	0x3c69b079	0.014263266
25	0x3e99f8c6	0.30072612
26	0xbdd54af1	-0.104146846
27	0x3e626eb3	0.22112541
28	0xbe68f8e5	-0.22751196
29	0xbe6f1550	-0.23347974
30	0x3ddcd6fe	0.10783194
31	0xbd846f32	-0.06466521
32	0x3e907387	0.2821314
33	0xbed7a70b	-0.4211963
34	0x3dfd9bcf	0.12383234
35	0x3e420442	0.18946937
36	0x3ae6d066	0.0017609715
37	0x3b26d0f4	0.0025454136
38	0xbd43c9a2	-0.047799714
39	0x3e0a7ba1	0.13523723
40	0x3d885600	0.06657028
41	0xbc8a6499	-0.016893672
42	0xbd2ad669	-0.041708384
43	0xbc92722e	-0.01787671
44	0xbd914396	-0.07092969
45	0xbb83c4a9	-0.0040212465
46	0x3cdb685d	0.026783163
47	0xbd70b67a	-0.058767773
48	0xbbfb3f02	-0.007667423
49	0xbd60cdc6	-0.05488374
50	0x3dbc33fc	0.09189603
51	0x3bf30825	0.0074167424
52	0x3ddad8d5	0.10685889
53	0xbdeddcf9	-0.11614413
54	0x3d8c2475	0.06842891
55	0x3a877461	0.0010334366
56	0x3d5a0a80	0.05323267
57	0x3de5a9cc	0.11214027
58	0xbd2eb329	-0.04265133
59	0xbecd8cd2	-0.401465
60	0xbe31dd83	-0.17369656
61	0x3d424ddb	0.04743753
62	0x3d7ce9a7	0.061746266
63	0xbe0949df	-0.13407086
64	0x3d858e54	0.065212876
65	0x3dfc189a	0.1230938
66	0xbde5bc25	-0.11217526
67	0x3d9fce62	0.07803036
68	0x3e1aa01d	0.15100141
69	0x3d17af41	0.03703237
70	0x3ce8f1a5	0.028435538
71	0xbebc9215	-0.36830202
72	0x3c5fb05f	0.01365289
73	0x3e85bcb9	0.26120546
74	0xbf0be284	-0.5464251
75	0x3c2b1891	0.010442869
76	0xbe95a473	-0.29227027
77	0x3defbadb	0.11705562
78	0x3df1aa8b	0.118001066
79	0xbdc6c48d	-0.09705458
80	0x3e72d503	0.2371407
81	0xbd6c4577	-0.057683434
82	0x3df681db	0.12036487
83	0xbe7e4991	-0.24832751
84	0xbdb05da5	-0.08611611
85	0x3d4abe73	0.049498033
86	0x3d7732b5	0.060351092
87	0x3d572729	0.05252758
88	0x3de25336	0.110510275
89	0xbe07763c	-0.13228697
90	0x3b670c0e	0.0035254988
91	0xbc290167	-0.010315276
92	0xbde37e05	-0.11108021
93	0xbd819518	-0.063272655
94	0xbdf685c8	-0.120372355
95	0x3dd6baa6	0.10484819
96	0xbe4f4771	-0.20242096
97	0xbe177d6e	-0.14793941
98	0xbcdb14ec	-0.026743375
99	0x3e3261dc	0.17420143
100	0xbe834768	-0.25640416
101	0x3d21588d	0.03939109
102	0xbcd692b0	-0.026192993
103	0xbf05ef8a	-0.5231863
104	0x3d05dbb5	0.032680232
105	0xbcb1aa9d	-0.0216878
106	0x3dc7c968	0.09755212
107	0xbb3b8084	-0.0028610537
108	0xbdbc814d	-0.0920435
109	0x3dc62a29	0.0967601
110	0x3d04b8c5	0.032402772
111	0x3e03e635	0.12880786
112	0xbe02ff1d	-0.1279263
113	0xbe9129bd	-0.28352156
114	0xbe8860b5	-0.26636282
115	0xbf155090	-0.58326054
116	0x3ea0f571	0.31437257
117	0xbe748971	-0.23880555
118	0xbe809ee4	-0.25121224
119	0x3d9c58e7	0.07634144
120	0x3f04b666	0.5184082
121	0xbce2ea84	-0.027699716
122	0x3e9719ff	0.2951202
123	0xbd82963c	-0.06376311
124	0xbec94df1	-0.39317277
125	0xbe9512c9	-0.29115894
126	0x3e4a1223	0.19733481
127	0xbcb7e4fc	-0.022448055
128	0x3d2d5193	0.042314123
129	0x3d4547ec	0.048164293
130	0xbda719a4	-0.081591874
131	0xbe15cb0a	-0.14628235
132	0x3d5712ae	0.05250805
133	0xbbab8875	-0.005234773
134	0xbcef799c	-0.029232793
135	0x3cdd99d2	0.027050886
136	0x3d344217	0.04400834
137	0x3d9e471a	0.07728405
138	0x3ca94957	0.020664854
139	0x3d20eaaf	0.03928631
140	0x3c8c9dad	0.01716503
141	0xbcc2979b	-0.023753932
142	0x3c818570	0.015810698
143	0xbd8329ab	-0.06404432
144	0xbebf7fce	-0.37402195
145	0x3e63f8c2	0.22262862
146	0xb97bf153	-0.00024027126
147	0xbdca92d0	-0.098912835
148	0xbc1845d1	-0.009293989
149	0x3ef9094a	0.486399
150	0xbdc03354	-0.0938479
151	0x3d3e1404	0.046405807
152	0x3c2a1852	0.010381775
153	0x3dba01da	0.090823844
154	0xbe5f2d9e	-0.21794745
155	0x3e6d967d	0.23201938
156	0xbec04351	-0.37551358
157	0xbeb42956	-0.35187787
158	0x3e8f248f	0.2795758
159	0x3df83544	0.121195346
160	0xbe61b802	-0.2204285
161	0x3df397b6	0.11894171
162	0xbed71adc	-0.4201268
163	0x3dedb189	0.11606128
164	0x3e276cee	0.16350147
165	0x3d62f52a	0.055409588
166	0xbf038fd4	-0.5139134
167	0x3e520181	0.20508386
168	0xbe3a087d	-0.181673
169	0x3d6e50b0	0.05818242
170	0xbe9d8172	-0.3076282
171	0xbd0a3436	-0.0337412
172	0x3e8b0ed7	0.2715976
173	0xbc7d0b71	-0.015444622
174	0xbec15831	-0.37762597
175	0x3cc4fd26	0.024046492
176	0xbeb7c54a	-0.35892707
177	0x3d0077de	0.031364314
178	0x3dc8dbdc	0.0980756
179	0x3cf2ea55	0.029652754
180	0x3d9d49d1	0.07680095
181	0x3e021729	0.12704147
182	0xbdf83ea4	-0.12121323
183	0x3c9045d7	0.017611427
184	0x3cb5ee0a	0.022208232
185	0xbca0353b	-0.019556632
186	0xbc92f94e	-0.017941143
187	0xbcd3b207	-0.025841726
188	0x3ce64ec9	0.02811374
189	0x3e0e074f	0.13869976
190	0xbc50a5a7	-0.012734807
191	0xbd976bc8	-0.073936045
192	0xbd1b2309	-0.03787521
193	0xbcbee945	-0.023304591
194	0x3d688255	0.05676492
195	0xbd109269	-0.035295878
196	0xbe803e92	-0.25047737
197	0x3eb7d749	0.35906437
198	0xbe52c51e	-0.20583007
199	0x3e89185e	0.26776403
200	0x3c992da9	0.01869853
201	0x3c8a0297	0.016846938
202	0xbcfd1946	-0.03089584
203	0x3d5dd312	0.05415637
204	0xbdd190c2	-0.102326885
205	0xbe445fa8	-0.19177115
206	0xbe6465d6	-0.22304472
207	0xbe83b648	-0.25725007
208	0x3e9ba2fb	0.30397782
209	0x3e303e21	0.172112
210	0x3b875419	0.0041298983
211	0x3d051c64	0.03249778
212	0x3eaf7d27	0.3427517
213	0x3de12a7b	0.10994431
214	0xbe6ce8ab	-0.23135631
215	0x3ecb60f2	0.397224
216	0x3df0f93a	0.11766286
217	0xbd5daf8a	-0.054122485
218	0xbe84997b	-0.25898346
219	0xbdf54adc	-0.11977169
220	0xbe72062f	-0.23635171
221	0xbe63bfce	-0.22241136
222	0xbe881ce3	-0.2658454
223	0x3d9a2b80	0.07527828
224	0x3dcdb334	0.10043946
225	0x3dfa7b6a	0.122305706
226	0x3d894bec	0.06703934
227	0x3d025587	0.031819846
228	0x3b9b9bb9	0.004748788
229	0x3d0a2702	0.033728607
230	0xba4e410f	-0.0007867971
231	0x3d43ed98	0.04783401
232	0xbdae8da8	-0.085231125
233	0xbc4a9fcc	-0.0123672
234	0xbde6ade6	-0.11263637
235	0xbd0707fd	-0.032966603
236	0x3d253430	0.040332973
237	0xbb9b68b0	-0.0047427043
238	0x3d945126	0.0724204
239	0xbd49fe24	-0.049314633
240	0x3dff345c	0.12461159
241	0xbdc10cdc	-0.09426281
242	0x3d8d0b90	0.06886971
243	0xbd5a8ed2	-0.05335886
244	0x3eb69dc2	0.35667235
245	0xbe4f83bb	-0.20265095
246	0xbd9422db	-0.07233211
247	0x3e3a0053	0.18164186
248	0x3dd77254	0.10519853
249	0x3bdc760f	0.006727941
250	0xbd8d8a92	-0.06911196
251	0xbf2cb3ef	-0.67462057
252	0x3ec98943	0.39362535
253	0x3d89f015	0.06735245
254	0x3e3ad374	0.18244725
255	0x3d64732f	0.05577391

bias f4 [512]
0	0xbe107d2f	-0.14110254
1	0xbe02c209	-0.12769331
2	0x3e0e1c66	0.1387802
3	0x3cbbdac0	0.022931457
4	0x3d8ef481	0.06980229
5	0xbe5a0fc6	-0.2129508
6	0xbe3c651d	-0.18397947
7	0xbdf10a8c	-0.1176959
8	0x3bd36b0f	0.0064519714
9	0x3af7835c	0.0018883753
10	0xbd807ba7	-0.06273585
11	0x3db79afa	0.08965106
12	0x3e16fc95	0.1474479
13	0x3d7019e8	0.058618456
14	0xbe1bd592	-0.1521819
15	0xbe48bc78	-0.19603145
16	0xbd8d2581	-0.06891919
17	0x3d8cbcd6	0.06871955
18	0xbe47ce8c	-0.19512385
19	0x3d172f64	0.03691043
20	0xbc2f7e7f	-0.010711311
21	0xbd828ad7	-0.06374138
22	0xbe1eb847	-0.15499984
23	0xbe0ddeeb	-0.13854568
24	0xbd83fb16	-0.06444375
25	0x3d9fcacb	0.078023516
26	0xbe17a6c7	-0.14809714
27	0x3dbe2d43	0.09285977
28	0x3da3836d	0.07984052
29	0x3dee5f2d	0.11639247
30	0x3d5dc447	0.054142263
31	0xbe6b835c	-0.22999328
32	0xbdb7282b	-0.08943208
33	0xbb9383f4	-0.004501814
34	0xbe675fbc	-0.22595114
35	0x3e29514e	0.16534922
36	0x3d9812b5	0.07425443
37	0x3e0762e4	0.13221318
38	0x3da8b601	0.082378395
39	0xbdd37477	-0.10324948
40	0x3de9b12d	0.11410747
41	0xbe0f0be7	-0.13969384
42	0xbcb8e197	-0.022568507
43	0x3e40464f	0.1877682
44	0xbb9e3963	-0.0048286184
45	0xbc97eafe	-0.01854467
46	0xbe84ff47	-0.2597601
47	0xbe084033	-0.1330574
48	0xbd85279f	-0.06501698
49	0xbc988492	-0.018617902
50	0xbe7e7d3b	-0.24852459
51	0xbd3c759a	-0.04601059
52	0x3e1a2bdf	0.15055798
53	0xbd97dab7	-0.074147634
54	0xbd98400c	-0.07434091
55	0x3cbf5942	0.023357991
56	0x3d8f96f5	0.07011215
57	0xbd971f6e	-0.073790416
58	0x3dedebfd	0.11617277
59	0xbdbcfefc	-0.09228322
60	0x3dbbea9b	0.09175607
61	0xbd86bc9b	-0.065789424
62	0x3d89e071	0.06732262
63	0x3e048c9d	0.12944265
64	0xbd4ffa9c	-0.05077611
65	0x3d28ad56	0.04118093
66	0xbc3d3c72	-0.011550056
67	0xbc183891	-0.00929083
68	0x3ccce4ed	0.025011504
69	0x3c979490	0.018503457
70	0xbddbe6b2	-0.10737361
71	0xbdba496b	-0.090960346
72	0xbdda1763	-0.10648992
73	0x3c880a18	0.016606376
74	0xbe56e673	-0.20986347
75	0x3d83edad	0.064418174
76	0xbe018ea6	-0.12652072
77	0xbdb4b63f	-0.08823823
78	0x3e214128	0.15747511
79	0xbe750ab2	-0.23929861
80	0x3d4130bf	0.04716563
81	0x3d675dd8	0.05648598
82	0xbb8c6f6c	-0.0042857435
83	0xbd1c3f20	-0.03814614
84	0xbe060c66	-0.13090667
85	0x3d89bb4c	0.06725177
86	0xbd4d964c	-0.050192162
87	0x3cce3998	0.025173947
88	0xbe1e3085	-0.15448196
89	0x3d5d3bc2	0.054012068
90	0xbda2bf0f	-0.07946598
91	0x3e5a2d66	0.2130638
92	0x3d3ffc09	0.04687122
93	0xbd809d27	-0.062799744
94	0xbd6fba3a	-0.05852721
95	0xbcac2e7c	-0.02101826
96	0xbd1c2759	-0.038123462
97	0x3decaa33	0.115559004
98	0xbe1e51a2	-0.15460828
99	0xbd83eb34	-0.06441346
100	0xbe1a4548	-0.15065491
101	0x3c912d75	0.01772187
102	0x3bc53c42	0.006019146
103	0xbd561336	-0.052264415
104	0xbce0f855	-0.027462164
105	0xbda3b6db	-0.07993861
106	0xbe37fb4f	-0.1796696
107	0xbd87384c	-0.06602535
108	0xbb8067df	-0.0039186324
109	0xbd4f1135	-0.05055352
110	0x3d97b2af	0.07407128
111	0xbe58c371	-0.21168305
112	0x3d116ee3	0.03550614
113	0xbe078985	-0.13236053
114	0x3e11e0de	0.14245936
115	0xbdd15b91	-0.10222543
116	0x3df2fa4e	0.11864148
117	0x3db527af	0.0884546
118	0x3d9a651d	0.07538817
119	0x3db01f38	0.085997045
120	0xbe4d0d1b	-0.2002453
121	0xbdceaf6c	-0.10092053
122	0xbdb07f2d	-0.08618007
123	0x3c37e336	0.011223605
124	0xbd28d3b6	-0.04121753
125	0xbe2a8da9	-0.16655602
126	0xbba08b09	-0.004899387
127	0xbe60d5f8	-0.21956623
128	0xbe1a0347	-0.15040313
129	0xbdc2957e	-0.095011696
130	0x3d3dbffe	0.046325676
131	0xbd569e30	-0.052396953
132	0x3df0cf1a	0.117582515
133	0xbe4034dc	-0.18770164
134	0x3d4c2229	0.049837265
135	0x3d08968d	0.0333467
136	0xbd447a65	-0.047968287
137	0x3df50d9e	0.11965488
138	0x3e025a5b	0.1272978
139	0x3dab914b	0.08377322
140	0xbe796671	-0.24355485
141	0x3e042994	0.12906486
142	0x3c456846	0.0120487865
143	0xbd58a032	-0.05288715
144	0xbd22a557	-0.03970846
145	0x3cbf7642	0.02337182
146	0x3d190018	0.037353605
147	0xbd3e6f9b	-0.046493154
148	0xbdcfb835	-0.101425566
149	0x3c971629	0.018443184
150	0xbdab409a	-0.08361931
151	0x3c2add3d	0.010428724
152	0xbc92a750	-0.017902046
153	0xbe40067d	-0.18752475
154	0xbd13ba4d	-0.036066342
155	0x3c618fee	0.013767226
156	0x3cf33364	0.02968759
157	0xbe5a9817	-0.2134708
158	0x3e4e3d95	0.20140679
159	0xbc87bfa2	-0.01657087
160	0xbcb7b2ba	-0.02242409
161	0x3d40fec7	0.047117975
162	0xbe5512ba	-0.20807925
163	0x3c314a9c	0.010821011
164	0xbe632ab4	-0.22184259
165	0xbda51e71	-0.08062447
166	0xbe6b51cf	-0.22980426
167	0x3be2a580	0.006916702
168	0xbd93d972	-0.07219209
169	0x3c0a166b	0.008428196
170	0xbe64ef08	-0.22356808
171	0xbd19c79e	-0.037543885
172	0xbd7b3cab	-0.061337154
173	0x3dafdc74	0.0858697
174	0xbe263390	-0.16230607
175	0xbde622f6	-0.11237137
176	0xbe6ab134	-0.2291916
177	0xbe12eecc	-0.14348906
178	0xbded254a	-0.11579378
179	0xbe1cfe0d	-0.15331288
180	0xbe2d3498	-0.16914594
181	0x3b874ff2	0.0041294033
182	0x3d9fb4d7	0.07798164
183	0xbe44eccf	-0.1923096
184	0xbd099770	-0.033591688
185	0x3e21e849	0.15811266
186	0xbe0450be	-0.12921426
187	0xbda8a3b6	-0.082343504
188	0x3d1d8e1d	0.038465608
189	0xbd8a3624	-0.06748608
190	0x3d6709c7	0.05640581
191	0xbb8ecced	-0.004357925
192	0x3dbb299c	0.09138796
193	0x3c83eb27	0.01610334
194	0xbdfc95e9	-0.123332806
195	0x3be4ce7a	0.0069826217
196	0x3d5e05c6	0.054204725
197	0x3dceba56	0.100941345
198	0x3e433e13	0.19066648
199	0xbdbb033d	-0.09131477
200	0x3c21043a	0.009827668
201	0x3da6ff22	0.081541315
202	0x3e2a3a66	0.1662384
203	0xbd8c9cbe	-0.06865834
204	0xbe308b36	-0.17240605
205	0xbe601107	-0.21881495
206	0xbe28006e	-0.16406414
207	0x3db1d8d1	0.086839326
208	0xbdf6b389	-0.12045962
209	0xbdfa7c1f	-0.122307055
210	0x3bb2eca6	0.0054603396
211	0xbb079e61	-0.0020693766
212	0xbd278f9a	-0.040908433
213	0x3bfb867b	0.0076759434
214	0xbe1d54f4	-0.15364438
215	0xbd8c6eb4	-0.068570524
216	0xbd251588	-0.040303737
217	0xbe43c62a	-0.19118562
218	0xbcc8a303	-0.024491793
219	0xbd93a5e6	-0.07209377
220	0x3da2a39f	0.079413645
221	0x3c84a9a5	0.016194174
222	0x3c7d05a4	0.015443239
223	0xbd67b66f	-0.056570467
224	0x3d4bc125	0.049744744
225	0xbe010c38	-0.12602317
226	0x3c8872b7	0.016656263
227	0x3caacd4b	0.020849844
228	0xbdbcc86b	-0.09217914
229	0xbe6e4e8b	-0.2327215
230	0x3db1cf4e	0.08682118
231	0xbd963d60	-0.07335925
232	0xbe18afd7	-0.14910828
233	0xbe37b489	-0.17939962
234	0xbe1de1c2	-0.15418151
235	0x3d846cff	0.06466102
236	0x3e01f963	0.1269279
237	0xbe1187b8	-0.14211929
238	0xbdf0508c	-0.11734113
239	0x3e16de32	0.14733198
240	0x3d8cafd1	0.06869472
241	0xbcc6cfad	-0.02426895
242	0xbe4611bd	-0.19342704
243	0xbdf3d467	-0.11905747
244	0xbddcf683	-0.10789206
245	0x3b9feb1e	0.004880323
246	0xbd922faa	-0.071379974
247	0xbc9e4477	-0.019319756
248	0xbe0d3679	-0.13790311
249	0xbd82abd3	-0.06380429
250	0xbd80e9cb	-0.062945925
251	0xbd30a022	-0.043121465
252	0x3d6170c8	0.055039197
253	0x3e053879	0.13009824
254	0x3d75fdab	0.06005637
255	0x3defaefb	0.11703297

weight f4 [256, 512]
0	0xbcc6d0a4	-0.02426941
1	0xbc72a964	-0.014810894
2	0x3de5a73d	0.11213539
3	0x3d854e38	0.0650906
4	0x3d9cd51b	0.07657834
5	0xbc2315ca	-0.009953925
6	0xbcc0eab1	-0.02354941
7	0x3da042a2	0.07825209
8	0xbd0936c1	-0.033499483
9	0x3cb2fa14	0.021847762
10	0xbdd77c48	-0.10521752
11	0xbe1fcdef	-0.15605901
12	0xbdf53f9f	-0.119750254
13	0x3d86a45f	0.0657432
14	0xbd7210e4	-0.05909814
15	0x3ba1ff9e	0.004943802
16	0xbdd73464	-0.105080396
17	0x3d0478ea	0.032341875
18	0x3c00d201	0.007862569
19	0x3d123d5b	0.035703044
20	0x3df521fc	0.11969373
21	0xbe332368	-0.17493975
22	0xbdae73f0	-0.08518207
23	0x3d5485d6	0.05188545
24	0xbd0d049d	-0.034428228
25	0x3d5c6da5	0.053815503
26	0xbdd3f37d	-0.10349176
27	0x3d9b6956	0.075884506
28	0xbb3638e5	-0.0027804908
29	0x3ca79888	0.020458475
30	0xbd393991	-0.045220915
31	0x3daee46a	0.0853966
32	0x3da2ebb8	0.07955116
33	0x3d21f6bf	0.039541956
34	0x3ccd09f2	0.025029156
35	0xbb68c416	-0.0035517267
36	0xbde3fab1	-0.111318
37	0xbe129d63	-0.14317851
38	0x3cec92a2	0.028878514
39	0xbba92a33	-0.0051625012
40	0x3b4f6052	0.0031643105
41	0xbdcaa4da	-0.09894724
42	0x3d7a0a3d	0.06104492
43	0x3c3faa68	0.011698343
44	0xbd9a0866	-0.07521133
45	0x3e011de2	0.12609056
46	0x3d5790eb	0.05262844
47	0xbcf56c3e	-0.02995884
48	0xbdbb2b1a	-0.0913908
49	0xbd883fe9	-0.06652815
50	0x3caced3c	0.021109216
51	0x3a8c9001	0.0010724069
52	0xbd550bb1	-0.052013103
53	0x3c5127b1	0.012765811
54	0xbd3b3b93	-0.04571111
55	0xbd9b85d9	-0.07593889
56	0x3d867e74	0.06567088
57	0xbd2673c4	-0.040637746
58	0xbcb15001	-0.021644594
59	0x3c89f18e	0.016838815
60	0xbd24a426	-0.040195607
61	0xbd10d81e	-0.035362355
62	0x3dfef8dd	0.12449811
63	0xbc970c26	-0.01843841
64	0xbdd65294	-0.10464969
65	0x3d7bfdf1	0.061521474
66	0xbd628421	-0.05530179
67	0xbd49ec81	-0.049297813
68	0xbd9c7133	-0.076387785
69	0xbd0cbbe0	-0.03435886
70	0xbe4689b2	-0.19388464
71	0x3b87e6a7	0.004147369
72	0xbd11b1cc	-0.03556995
73	0x3988ab4e	0.00026067573
74	0x3dd1b9a9	0.1024049
75	0xbde1dcbb	-0.11028429
76	0x3da44909	0.08021743
77	0xbcddf1e4	-0.027092882
78	0x3bcd48eb	0.006264796
79	0x3dd75bbd	0.105155446
80	0xbca13bbf	-0.01968181
81	0x3dfdbbde	0.123893484
82	0x3db6d0cf	0.08926546
83	0x3d3632a9	0.044481907
84	0xbde52e9a	-0.11190529
85	0x3d28d38d	0.041217376
86	0x3d44c29b	0.048037153
87	0x3da4fbf5	0.080558695
88	0xbe01b066	-0.12664947
89	0x3d2d8f0f	0.04237276
90	0x3d662b72	0.056193776
91	0x3d4e98a5	0.050438542
92	0xbdb437fb	-0.0879974
93	0x3d50a119	0.050934885
94	0x3c97451d	0.018465573
95	0x3b011f10	0.0019702353
96	0xbc481348	-0.012211628
97	0xbbba9852	-0.0056944275
98	0xbd0daca5	-0.034588475
99	0xbd017143	-0.031602155
100	0x3d485b03	0.04891492
101	0x3d8d2e3c	0.06893584
102	0xbdd9a67e	-0.10627459
103	0x3da53fd7	0.08068817
104	0xbd6b5963	-0.057458293
105	0xbd6e2d58	-0.058148712
106	0xbb7ddf28	-0.0038737748
107	0x3db903e0	0.09033942
108	0xbc5c474b	-0.013444732
109	0x3df6b02f	0.12045323
110	0xbba97b1f	-0.005172148
111	0xbc7576b4	-0.014981914
112	0xbbc4e19a	-0.006008339
113	0x3d836b91	0.06417001
114	0xbdac97b7	-0.08427375
115	0xbe00fdf1	-0.12596871
116	0x3c50592d	0.012716574
117	0xbd9fc6b9	-0.07801575
118	0xbd312b5d	-0.043254245
119	0x3da52041	0.080627926
120	0xbe4228f6	-0.18960938
121	0xbd9bd976	-0.07609837
122	0x3cf1837b	0.02948164
123	0xbc7f0264	-0.015564535
124	0xbca748a2	-0.020420376
125	0x3d02945f	0.03187978
126	0x3d5cfce7	0.053952124
127	0x3cb27439	0.021783935
128	0x3dce7e06	0.10082631
129	0x3ba675ed	0.005079976
130	0x3d9ac63d	0.07557342
131	0xbc82ea3a	-0.015980829
132	0xbd4a187d	-0.04933976
133	0xbdc53443	-0.09629109
134	0xbd309437	-0.0431101
135	0x3c2d7bef	0.01058863
136	0x3b0a8948	0.0021138955
137	0xbcebe076	-0.028793555
138	0xbc0e849b	-0.008698608
139	0x3c1d5db8	0.009604864
140	0x3c69f867	0.014280415
141	0x3caefe90	0.02136162
142	0xbe0da36a	-0.13831869
143	0xbe47d3eb	-0.19514434
144	0x3e1d4064	0.15356594
145	0x3d9b8e89	0.07595546
146	0xbd6c0e12	-0.057630606
147	0x3d1fe36c	0.039035246
148	0xbc50c0fc	-0.012741324
149	0x3c3fb2f6	0.011700382
150	0xbd24ea0f	-0.04026228
151	0xbc333dff	-0.010940074
152	0x3d635bb3	0.055507373
153	0x3b216672	0.0024627713
154	0xbdc4d5ad	-0.09611068
155	0x3dc12d15	0.09432427
156	0xbdd05b9f	-0.10173725
157	0xbc788d53	-0.015170413
158	0xbd243d28	-0.040097386
159	0x3d35e1ca	0.044404782
160	0x3d63b27b	0.055590134
161	0x3d6b66af	0.057470974
162	0xbd2fb8fc	-0.042901024
163	0x3c26fb9d	0.010191825
164	0x3caca405	0.021074304
165	0x3d48b4b2	0.04900045
166	0xbcf237c0	-0.0295676
167	0x3da15ead	0.07879386
168	0xbd06d8f6	-0.032921754
169	0x3c27b8ee	0.010236962
170	0xbdb1ea10	-0.08687222
171	0xbd40c778	-0.04706523
172	0x3d8f7d82	0.070063606
173	0x3c1ca706	0.009561306
174	0x3c3ff039	0.011714988
175	0xbda600be	-0.0810561
176	0xbb1ee9c7	-0.002424823
177	0xbd90aa6c	-0.070637554
178	0x3ca0c7f3	0.019626593
179	0xbd90d2a6	-0.07071428
180	0x3d6c5b42	0.057704218
181	0xbdba0795	-0.090834774
182	0x3d531b46	0.05153968
183	0xbc58ea41	-0.013239444
184	0x3d5c59a9	0.053796444
185	0xbc2be0a2	-0.010490568
186	0xbe4067c5	-0.18789585
187	0xbdbfb94a	-0.09361513
188	0xbddc8241	-0.107670315
189	0x3e1933a8	0.14961112
190	0x3c3c1445	0.011479442
191	0x3d8e8390	0.06958687
192	0x3dafd381	0.08585263
193	0xbd84e30e	-0.0648862
194	0xbdc760fe	-0.09735297
195	0xbc13736c	-0.008999687
196	0x3d87cf4d	0.06631336
197	0x3e1bf023	0.15228324
198	0xbe05b513	-0.13057356
199	0x3dca262d	0.09870563
200	0x3d1456ac	0.03621547
201	0xbd002683	-0.031286728
202	0xbbac5931	-0.005259656
203	0xbcc06696	-0.023486417
204	0x3e16d052	0.14727905
205	0xbde019d8	-0.10942429
206	0x3d824791	0.063613065
207	0xbd00e549	-0.031468663
208	0xbd6ea3d5	-0.05826171
209	0xbadb9700	-0.0016753376
210	0x3cbd4e72	0.023108695
211	0xbc331d5e	-0.010932295
212	0x3d4b60ae	0.049652748
213	0x3de2f5b3	0.1108202
214	0xbdf3a2c8	-0.118962824
215	0xbc7d8f47	-0.0154760545
216	0xbde6eaa9	-0.112752266
217	0xbce7d921	-0.028301777
218	0x3d00dabf	0.031458613
219	0x3bf98b3d	0.0076154754
220	0x3d81c5d8	0.06336564
221	0xbce083dc	-0.027406625
222	0x3b99ea66	0.004697132
223	0x3b641996	0.003480529
224	0x3c9a4dd2	0.018835936
225	0xbd39f8ef	-0.045403417
226	0x3d92ee2c	0.07174334
227	0x3af43ef6	0.0018634486
228	0xbcc07d00	-0.023497105
229	0xbca8eed3	-0.020621693
230	0xbd633ddc	-0.055478916
231	0xbc0e91ee	-0.008701785
232	0x3cd6e439	0.026231872
233	0x3db064c0	0.086129665
234	0x3d2e2917	0.042519655
235	0x3d38ed06	0.04514792
236	0x3d8181bd	0.06323574
237	0xbd78ff2e	-0.060790233
238	0xbe4968ed	-0.19668932
239	0x3c5a4173	0.013321268
240	0xbb05c239	-0.0020409955
241	0xbc575d18	-0.013144754
242	0x3d790210	0.060792983
243	0x3d445a65	0.04793777
244	0xbcf0a448	-0.02937521
245	0xbdd759e3	-0.105151914
246	0x3d5cccf9	0.053906415
247	0x3be5cc22	0.00701286
248	0xbdc02afe	-0.093832
249	0xbc332380	-0.010933757
250	0xbd98bb19	-0.07457561
251	0x3b42e5a2	0.0029738923
252	0x3c67424b	0.014114927
253	0xbe0127ed	-0.12612887
254	0xbdb61081	-0.088898666
255	0xbe05468d	-0.13015194

bias f4 [256]
0	0xbd821acf	-0.063527696
1	0xbc561633	-0.013066816
2	0xbdd100eb	-0.10205253
3	0xbdba65ed	-0.09101472
4	0xbe039d2d	-0.12852927
5	0xbd4677a0	-0.048453927
6	0xbccced77	-0.025015576
7	0xbd880bc3	-0.06642868
8	0xbd5d89d3	-0.054086518
9	0xbe2d2f2a	-0.16912523
10	0xbdf53902	-0.11973764
11	0xbd67c969	-0.056588564
12	0xbdd33527	-0.103128724
13	0xbd3870f0	-0.04502958
14	0xbddbd42e	-0.107338294
15	0xbd25265f	-0.040319797
16	0xbdae2075	-0.085022844
17	0xbaecd568	-0.0018068971
18	0xbd7c3acc	-0.06157951
19	0xbd123365	-0.035693545
20	0xbdc259f4	-0.094898134
21	0xbcb57148	-0.022148743
22	0xbdbc5fbb	-0.09197947
23	0xbda7210c	-0.081606
24	0xbd48ddfb	-0.049039822
25	0xbd831735	-0.06400911
26	0xbd8bb3a2	-0.068213716
27	0xbd8ab826	-0.06773405
28	0xbd4397f3	-0.047752332
29	0xbdd14a06	-0.10219197
30	0xbddf74eb	-0.10910972
31	0xbe1d2922	-0.15347722
32	0xbd3b4fcb	-0.045730393
33	0xbdff66e7	-0.12470799
34	0xbc9e557f	-0.019327877
35	0xbdb4c1a2	-0.08825995
36	0xbdc9c5c5	-0.09852175
37	0xbe10f85e	-0.14157245
38	0xbe5d55fc	-0.21614832
39	0x3c9b0aa4	0.018925972
40	0xbe1ab194	-0.15106803
41	0xbe14183b	-0.14462368
42	0xbe28090b	-0.164097
43	0xbe5338ae	-0.2062709
44	0xbdda8800	-0.10670471
45	0xbd969e93	-0.073544644
46	0xbd29b50d	-0.04143243
47	0xbdb929e5	-0.09041194
48	0x3d13485c	0.03595768
49	0xbe1823f9	-0.14857472
50	0xbde5b7ba	-0.11216684
51	0xbdb18db8	-0.08669609
52	0xbd759238	-0.0599539
53	0xbd4f192f	-0.050561126
54	0xbc77c33c	-0.015122231
55	0x3caf7976	0.021420222
56	0xbd2ffc14	-0.04296501
57	0xbe209d76	-0.15685067
58	0xbe11cd32	-0.14238432
59	0xbcb7c936	-0.022434812
60	0xbd9d57f0	-0.07682788
61	0xbde8aa37	-0.11360591
62	0xbcaa73d2	-0.02080718
63	0xbdb04432	-0.08606757
64	0xbd87f1e6	-0.06637935
65	0xbde9a40f	-0.11408245
66	0xbd975d5a	-0.07390852
67	0xbda7b110	-0.08188069
68	0xbca1fa13	-0.019772565
69	0xbc307e93	-0.010772365
70	0x39a19e24	0.00030826137
71	0xbd6c7082	-0.057724483
72	0xbd92794e	-0.07152043
73	0xbe25ede0	-0.16204023
74	0xbbff9ebf	-0.0078009064
75	0xbd985472	-0.07437982
76	0xbe387e86	-0.18017015
77	0xbcce5b8b	-0.025190135
78	0xbdd5074c	-0.104017824
79	0xbe06acaa	-0.13151804
80	0xbdc8a9bb	-0.097979985
81	0xbcfb5fb9	-0.030685293
82	0xbde0d4e6	-0.10978107
83	0xbd96d566	-0.07364921
84	0xbd7591bf	-0.059953447
85	0xbd5e819a	-0.054322816
86	0xbd8e357d	-0.06943796
87	0xbd36aa45	-0.044595975
88	0xbcb93f2e	-0.022613134
89	0xbde3b816	-0.11119096
90	0xbc72388d	-0.014783991
91	0xbd9328a5	-0.07185487
92	0xbb792af0	-0.0038019978
93	0xbd53bb5e	-0.05169236
94	0xbdbe0fd4	-0.09280363
95	0xbe3b156c	-0.1826989
96	0xbde4930e	-0.11160861
97	0x3c2ebc01	0.010664941
98	0xbd64e99a	-0.055886842
99	0xbd0a938e	-0.033832125
100	0xbda9d4c3	-0.08292534
101	0xbca1a9b4	-0.019734241
102	0xbe3bb9e3	-0.18332629
103	0xbdf7273c	-0.1206803
104	0x3cdfee82	0.02733541
105	0xbe0007fa	-0.12503043
106	0xbd804c5b	-0.06264564
107	0xbda543c6	-0.080695674
108	0xbc75d672	-0.015004741
109	0xbd71edcd	-0.059064675
110	0x3cb8ff39	0.022582637
111	0xbde49be7	-0.111625485
112	0x3bb970c6	0.0056591956
113	0xbe11a432	-0.14222792
114	0xbd28ab35	-0.0411789
115	0xbdffc885	-0.12489418
116	0xbdbe070d	-0.092786886
117	0xbe446aea	-0.1918141
118	0xbcea6ee3	-0.028617328
119	0xbd31b00f	-0.043380793
120	0xbda99620	-0.08280587
121	0xbd7a2596	-0.061071
122	0xbd80803e	-0.0627446
123	0xbde346a3	-0.11097457
124	0xbdb2676f	-0.08711135
125	0xbe060c23	-0.13090567
126	0xbdf90eff	-0.121610634
127	0xbe0b2604	-0.1358872
128	0xbdf61ee7	-0.12017613
129	0xbd4e9fd0	-0.050445378
130	0xbe00145b	-0.12507765
131	0xbd2421e2	-0.040071376
132	0xbe6e1bb4	-0.23252755
133	0xbda292c9	-0.07938153
134	0xbe398082	-0.18115428
135	0xbd848d1a	-0.064722255
136	0xbe434e31	-0.19072796
137	0xbe4024fe	-0.18764111
138	0xbe147b31	-0.14500119
139	0xbe02812e	-0.1274459
140	0x3b95f014	0.0045757387
141	0xbe31b20c	-0.17353076
142	0xbd4d7d69	-0.05016843
143	0xbcaba882	-0.020954374
144	0xbd51aa31	-0.051187698
145	0xbe1c107b	-0.15240662
146	0xbd4dfa15	-0.050287325
147	0xbdd4e379	-0.103949495
148	0xbe2c7551	-0.16841628
149	0xbd9695f7	-0.07352822
150	0xbdc97857	-0.09837406
151	0xbdbde6a3	-0.09272506
152	0xbdc2cc92	-0.09511675
153	0xbdba9646	-0.09110694
154	0xbdbdba25	-0.0926402
155	0xbdc18a60	-0.09450221
156	0xbd9c9cc0	-0.07647085
157	0xbe422127	-0.18957959
158	0xbd098752	-0.033576317
159	0xbd8ccc9f	-0.06874966
160	0xbd7b34ce	-0.061329655
161	0xbded606e	-0.11590658
162	0xbde22045	-0.11041311
163	0xbdb77919	-0.089586444
164	0xbcff48b3	-0.031162595
165	0xbdeaa034	-0.114563376
166	0xbc5964f3	-0.013268697
167	0x3da9ccbc	0.08291003
168	0x3b4c0c23	0.0031135164
169	0xbd49d679	-0.049276803
170	0xbdf8e81c	-0.12153646
171	0x3bf1f649	0.007384096
172	0x3d59ef7f	0.053206917
173	0x3d3b2fc5	0.045699853
174	0xbe136399	-0.14393462
175	0xbe1b59b6	-0.15170941
176	0xbe0e6246	-0.13904676
177	0xbd6d2fe5	-0.057907004
178	0xbe0113d3	-0.12605219
179	0xbd259f49	-0.04043511
180	0xbd983752	-0.074324265
181	0xbcfdbbc2	-0.030973319
182	0xbd838a86	-0.064229056
183	0xbd8d45bb	-0.06898066
184	0xbdba9d19	-0.09111995
185	0xbd6a69bd	-0.057229746
186	0xbd38e02c	-0.045135662
187	0xbddc792c	-0.10765299
188	0xbda62bfc	-0.08113858
189	0xbe561850	-0.20907712
190	0xbd39397a	-0.04522083
191	0xbe5c46e2	-0.21511415
192	0xbd1bf3bb	-0.038074236
193	0xbcc90f28	-0.02454336
194	0xbce0b8c4	-0.027431853
195	0xbe319c4c	-0.17344779
196	0xbe018cf3	-0.12651424
197	0xbd02fe8b	-0.031981032
198	0xbc7eabe1	-0.015543909
199	0xbd6fc728	-0.05853954
200	0xbd893884	-0.067002326
201	0xbd33c97d	-0.043893326
202	0xbda6f3b2	-0.0815195
203	0xbd5b0b53	-0.053477596
204	0xbd775b60	-0.060389876
205	0xbdf1c4c4	-0.11805108
206	0xbc296d03	-0.010340932
207	0xbd4d5faf	-0.05014008
208	0xbe198dea	-0.14995542
209	0xbd597b0d	-0.053095866
210	0xbd9fd3e0	-0.07804084
211	0x3d8d4091	0.06897081
212	0xbc9bd04b	-0.01902022
213	0xbd83c688	-0.06434351
214	0xbe31235c	-0.17298645
215	0xbdf42c31	-0.11922491
216	0xbe1dbcd2	-0.1540406
217	0xbdba6632	-0.091015235
218	0xbba50954	-0.0050365124
219	0xbe0b6f01	-0.13616563
220	0xbe16da79	-0.14731778
221	0xbda32913	-0.07966819
222	0xbe8ff27f	-0.28114697
223	0xbce0d5dc	-0.027445726
224	0xbd6b42f1	-0.057436887
225	0xbdb83ad4	-0.089955956
226	0xbd94e387	-0.0726996
227	0xbd3eeb98	-0.0466114
228	0x3cc10691	0.023562701
229	0xbd3081e6	-0.04309263
230	0xbca1ae16	-0.019736331
231	0xbdf09fef	-0.11749255
232	0xbdd6c5c9	-0.10486943
233	0xbda2d08f	-0.07949936
234	0xbe0cd2b5	-0.13752253
235	0xbe1b25c3	-0.15151124
236	0xbd830eab	-0.06399282
237	0xbd9e89c2	-0.07741119
238	0xbce09a7f	-0.02741742
239	0xbe325155	-0.17413838
240	0xbd996e6f	-0.07491767
241	0xbd714fff	-0.05891418
242	0xbdc14061	-0.094361074
243	0xbdffad19	-0.12484188
244	0xbd57c23d	-0.052675474
245	0x3c934894	0.017978944
246	0xbda44514	-0.08020988
247	0xbd125eb7	-0.03573486
248	0xbc7af729	-0.015317717
249	0xbc8fc4c1	-0.017549874
250	0xbc85310c	-0.016258739
251	0xbd165615	-0.036703188
252	0xbdabe1a8	-0.0839265
253	0xbdaf1711	-0.085493214
254	0xbdd94a12	-0.10609831
255	0xbd906c90	-0.07051957

weight f4 [128, 256]
0	0xbd0b47c8	-0.034004003
1	0xbc9b799c	-0.018978886
2	0x3ccd9c50	0.02509895
3	0x3cb4e36c	0.0220811
4	0xbc281684	-0.010259274
5	0xbcf4b2f4	-0.029870488
6	0xbd8fdaee	-0.070241794
7	0x3d6edd78	0.058316678
8	0xbd496872	-0.049171872
9	0xbce50292	-0.027955327
10	0x3d953903	0.07286265
11	0xbd674d2a	-0.056470074
12	0x3d32d573	0.043660592
13	0xbcc966f9	-0.024585234
14	0x3d4c7bc1	0.04992271
15	0x3d6608d9	0.05616078
16	0xbd928444	-0.07154134
17	0xbdf3e885	-0.11909584
18	0x3c6b290d	0.014353049
19	0x3d4dc9e0	0.05024135
20	0x3d222b17	0.039591875
21	0xbd80db04	-0.06291774
22	0xbd754d21	-0.05988801
23	0xbcfbf2d5	-0.03075544
24	0x3dc21e1a	0.09478398
25	0x3d8847b2	0.066543
26	0xbda8d658	-0.08244008
27	0xbb95f2ac	-0.004576048
28	0x3c083fce	0.0083159935
29	0x3d6d9ba9	0.058009777
30	0x3ca106ec	0.01965662
31	0x3dbd25ab	0.092357
32	0xbd0a6c83	-0.03379489
33	0x3bd7bb49	0.0065836054
34	0x3bffd3b6	0.0078072203
35	0x3dffa834	0.12483254
36	0x3c8cdc15	0.017194787
37	0xbd338280	-0.043825626
38	0x3d8a5a62	0.067555204
39	0xbd0db0d0	-0.03459245
40	0xbbeadba1	-0.007167295
41	0x3d33c8e5	0.04389276
42	0x3d406f50	0.046981156
43	0xbdc31ae6	-0.09526615
44	0xbd564ad0	-0.05231744
45	0x3d5888df	0.052864905
46	0xbca19ed5	-0.019729057
47	0x3c5bfee3	0.013427469
48	0x3c7938d0	0.015211299
49	0xbd82dcc9	-0.06389768
50	0xbc4f64a5	-0.012658273
51	0x3d16b9a3	0.03679813
52	0xbc8176b0	-0.015803665
53	0xbb6eb0a0	-0.0036421195
54	0x3dcdd2b0	0.10049951
55	0xbe6b1b1c	-0.2295956
56	0x3cf35f36	0.029708486
57	0xbe0ba82d	-0.13638373
58	0x3d7ad897	0.061241712
59	0xbbfd03de	-0.0077214083
60	0xbcacca70	-0.021092623
61	0x3c610035	0.0137329595
62	0xbcb4b1a5	-0.022057364
63	0xbd7d4dc2	-0.061841734
64	0xbba4d5e0	-0.0050303787
65	0xbcf36a44	-0.029713757
66	0xbc09a2b4	-0.008400608
67	0x3d760b69	0.060069475
68	0xbc89662b	-0.01677235
69	0x3d440f69	0.04786626
70	0x3d55cf83	0.05219985
71	0xbc2aeba5	-0.010432159
72	0x3d7b48c1	0.06134868
73	0x3d99d9e1	0.0751226
74	0xbda64e5e	-0.08120416
75	0x3c6ca025	0.014442478
76	0xbe1241df	-0.1428294
77	0xbd63617b	-0.055512886
78	0x3c82ef90	0.015983373
79	0xbd4b6abe	-0.049662344
80	0xbd07f69b	-0.033194166
81	0xbd8784ff	-0.06617164
82	0x3d5e2bb0	0.054240882
83	0x3d7e2c7e	0.06205415
84	0x3c84b135	0.01619778
85	0x3d5e40d3	0.05426104
86	0xbdd77b3c	-0.10521552
87	0xbdab9ea6	-0.08379869
88	0xbd3d0f80	-0.04615736
89	0x3d1b7081	0.03794909
90	0xbd8d1822	-0.068893686
91	0x39e60a40	0.00043876655
92	0xbc9fa535	-0.019487957
93	0xbccb91e6	-0.024849843
94	0x3df333ab	0.11875089
95	0x3be0d816	0.006861697
96	0xbd2fb14a	-0.042893685
97	0x3c3ecad0	0.011645034
98	0x3c854d99	0.016272353
99	0x3ba9f193	0.0051862686
100	0xbaecb89e	-0.0018060391
101	0xbc083650	-0.00831373
102	0xbc04a647	-0.008096284
103	0x3d42e831	0.047584716
104	0xbdbe1731	-0.09281767
105	0xbca5c68f	-0.020236282
106	0xbcedd5d8	-0.029032633
107	0x3cda77da	0.026668478
108	0x3d2f9f16	0.042876326
109	0xbbf9ee17	-0.0076272595
110	0xbd7f0f9f	-0.062270757
111	0xbd9f67d9	-0.07783479
112	0x3d1fe0ae	0.03903263
113	0xbd45070c	-0.048102424
114	0xbd0b1931	-0.03395957
115	0x3d3b11fe	0.045671456
116	0xbcaa36d3	-0.020778095
117	0xbd25f349	-0.040515218
118	0xbce5d401	-0.028055193
119	0x3d597a89	0.053095374
120	0xbdc09387	-0.094031386
121	0x3d1a3d37	0.037656035
122	0x3d78feac	0.06078975
123	0xbe0f1510	-0.13972878
124	0xba8e441a	-0.0010854036
125	0x3d1fe035	0.03903218
126	0xbd5eff39	-0.054442618
127	0xbcfde2f8	-0.030992016
128	0xbbbd1b79	-0.0057710973
129	0xbdd34dc5	-0.10317568
130	0xbd0e879d	-0.0347973
131	0x3ac26c3d	0.0014833283
132	0xbd83e168	-0.06439477
133	0x3c48b65c	0.012250509
134	0xbddf079f	-0.108901255
135	0xbd709649	-0.058737073
136	0xbd1f7f62	-0.03893984
137	0x3d0803ed	0.03320687
138	0xbd2262f1	-0.03964514
139	0xbe1ba6ac	-0.15200299
140	0xbc988364	-0.01861734
141	0xbcd7aa13	-0.026326215
142	0x3c8e7981	0.017391922
143	0xbd0e096e	-0.03467696
144	0x3c59cdee	0.013293726
145	0x3c2c9b85	0.010535126
146	0x3c8bfdb2	0.017088745
147	0x3d99da71	0.075123675
148	0xbd957b48	-0.07298905
149	0x3bdd5589	0.0067545814
150	0xbcc5b465	-0.02413387
151	0x3b25e30c	0.0025312332
152	0x3d754335	0.059878547
153	0xbb942041	-0.0045204465
154	0x3b07e00e	0.0020732912
155	0xbe011a7c	-0.12607759
156	0x3c992ec4	0.018699057
157	0x3b8d4876	0.0043116165
158	0xbd0f309d	-0.03495847
159	0x3b8d74f5	0.004316921
160	0xbd1ff29d	-0.039049733
161	0xbcfdfab0	-0.031003326
162	0xbc31ebb9	-0.010859423
163	0xbc1e311a	-0.009655261
164	0x3d71d0c2	0.059036978
165	0xbc0397e1	-0.008031816
166	0x3c78f914	0.015196104
167	0x3d6b98fc	0.057518944
168	0xbd897db2	-0.067134276
169	0x3c6bf39e	0.014401345
170	0x3d1f1155	0.03883489
171	0xbd752104	-0.05984594
172	0xbc1f099b	-0.00970688
173	0xbcb32426	-0.021867823
174	0x3d36e6b8	0.044653624
175	0xbcd779cf	-0.0263032
176	0xbde99801	-0.114059456
177	0xbd2672c5	-0.040636797
178	0xbc384f33	-0.011249351
179	0x3bd02c8e	0.0063529676
180	0x3e071ae5	0.13193853
181	0xbd3ad11e	-0.045609586
182	0xbca550ed	-0.02018019
183	0xbbec39be	-0.007209032
184	0xbda85202	-0.08218767
185	0x3d39ab6c	0.045329496
186	0xbdcd02f8	-0.10010332
187	0xbd77f7e1	-0.06053913
188	0xbca6ec21	-0.020376267
189	0xbc81a4cf	-0.015825657
190	0x3d982873	0.0742959
191	0x3b03410f	0.0020027792
192	0xbd728e31	-0.059217636
193	0xbcee39e9	-0.029080348
194	0x3c0ede8e	0.008720053
195	0x3e068e6d	0.13140269
196	0xbd562d86	-0.05228951
197	0xbce717b1	-0.02820954
198	0xbd626a22	-0.055276997
199	0xbdf802d7	-0.12109917
200	0xbd148777	-0.036262
201	0xbdf0bb7a	-0.11754508
202	0x3d910ad3	0.07082143
203	0xbd7c895a	-0.061654426
204	0x3cb245dc	0.021761827
205	0x3d7d1e4b	0.061796468
206	0x3d10efa6	0.035384797
207	0xbd8daa24	-0.069172174
208	0x3c43e30a	0.011955986
209	0x3b33a4e6	0.002741152
210	0x3cbebf8d	0.023284698
211	0xbd8e37c3	-0.069442295
212	0xbc58db58	-0.013235889
213	0x3c84485a	0.016147781
214	0xbce012b0	-0.02735266
215	0xbbd26bf1	-0.006421559
216	0x3daa63d8	0.08319825
217	0xbd97e3c1	-0.074164875
218	0xbd8e30bf	-0.06942891
219	0xbc94baa6	-0.018155407
220	0xba8c3071	-0.0010695589
221	0x3db37058	0.08761662
222	0xbc3c34c2	-0.011487188
223	0xbd7b3a70	-0.061335027
224	0x3d4712f3	0.048602056
225	0xbd95f9e8	-0.073230565
226	0xbdbbbfa8	-0.09167415
227	0xbca33758	-0.01992385
228	0xbcbd091f	-0.023075638
229	0xbd73770d	-0.059439708
230	0x3c1b60b8	0.009483509
231	0xbbf80012	-0.0075683678
232	0x3c09c16e	0.008407934
233	0x3d4c48ac	0.049873993
234	0xbd947a09	-0.07249839
235	0x3cb829a8	0.0224808
236	0x3d837a42	0.06419803
237	0xbc45defa	-0.012077088
238	0x38e7e57a	0.00011057682
239	0xbd9b8aa6	-0.075948045
240	0x3b2491d3	0.0025111332
241	0x3d5dbe91	0.054136816
242	0x3cbb8580	0.022890806
243	0x3cca3da2	0.024687592
244	0xbd80a39c	-0.06281206
245	0xbd0edeb5	-0.03488036
246	0xbd453216	-0.04814347
247	0xbd44e677	-0.04807135
248	0xbb8c6732	-0.004284763
249	0xbddcc200	-0.1077919
250	0x3d1deb9a	0.038554765
251	0xbdbf9a75	-0.09355632
252	0xbd2ab200	-0.04167366
253	0xbd32310b	-0.043503802
254	0xba21a823	-0.0006166717
255	0xbd13f35b	-0.036120754

bias f4 [128]
0	0xbd78537a	-0.060626484
1	0xbe0652ae	-0.13117477
2	0xbdbd426d	-0.09241185
3	0xbd29fbb7	-0.04149982
4	0xbd1c9f18	-0.03823766
5	0xbd9875d0	-0.07444346
6	0xbd099b0e	-0.033595137
7	0xbc5163af	-0.012780114
8	0xbd2c9e88	-0.042143375
9	0x3b79fbf9	0.0038144572
10	0xbd083eb9	-0.033262942
11	0x3ad6ad0b	0.0016378475
12	0xbd36b32e	-0.044604473
13	0xbde5ba11	-0.1121713
14	0x3b34c78f	0.0027584767
15	0xbcddc73b	-0.02707254
16	0xbdc46d3b	-0.095911466
17	0xbae5c221	-0.0017529168
18	0xbdcbb060	-0.0994575
19	0xbd1182c9	-0.035525117
20	0xbdb68671	-0.089123614
21	0xbdb7b1c1	-0.08969451
22	0xbaceb071	-0.0015769136
23	0xbe2b286d	-0.1671464
24	0xbd454c24	-0.048168316
25	0xbd34bb3b	-0.04412387
26	0xbd04911e	-0.032364957
27	0xbd0069c0	-0.03135085
28	0xbdbdcde0	-0.09267783
29	0x3bc4ed38	0.006009724
30	0xbd71e53a	-0.059056498
31	0xbdccabe6	-0.099937245
32	0xbd068c56	-0.03284868
33	0xbda932a3	-0.08261611
34	0xbd2f3675	-0.042776544
35	0xbd973a97	-0.07384222
36	0xbd86df1e	-0.06585525
37	0xbe34a7b3	-0.17642097
38	0xbb825755	-0.003977696
39	0xbe503b00	-0.20335007
40	0x3cbd86ef	0.02313563
41	0xbd6d7680	-0.05797434
42	0x3c997101	0.018730642
43	0xbdb14478	-0.086556375
44	0xbd48fd60	-0.049069762
45	0xbe00bb58	-0.12571466
46	0xbda8fb38	-0.08251041
47	0xbdc069a6	-0.09395151
48	0xbdda54d1	-0.10660709
49	0xbe19eadc	-0.15030998
50	0xbd0c1a02	-0.03420449
51	0xbd48db88	-0.049037486
52	0xbc9ce538	-0.019152269
53	0xbd570aa8	-0.052500397
54	0xbd7c36b7	-0.061575618
55	0xbde9f813	-0.114242695
56	0x3b6a6dbc	0.0035770973
57	0xbd54c664	-0.051947013
58	0xbdb8e62e	-0.09028278
59	0xbd8a33a4	-0.06748131
60	0xbdbe3d71	-0.09289063
61	0xbd7bb0ae	-0.06144779
62	0xbd7ac7a5	-0.061225552
63	0xbda01808	-0.078170836
64	0xbdc9f4b9	-0.0986113
65	0xbdd88b35	-0.10573427
66	0xbd632cfe	-0.05546283
67	0xbc3fac96	-0.011698863
68	0x3af1dc6c	0.0018452532
69	0xbd940874	-0.07228175
70	0xbd85344a	-0.06504114
71	0xbdc75c4f	-0.09734403
72	0xbd529dd7	-0.05142006
73	0x3c0734c2	0.008252325
74	0xbd87e36c	-0.06635174
75	0xbc0c95be	-0.008580623
76	0xbd4723cb	-0.04861812
77	0xbc4d2d8d	-0.012523067
78	0xbd6809e5	-0.05665006
79	0xbd586416	-0.052829824
80	0xbe434ec0	-0.1907301
81	0xbbcff44e	-0.006346262
82	0x3cf6322d	0.030053223
83	0xbd7ca85c	-0.061683998
84	0xbd82d674	-0.0638856
85	0xbe2aec09	-0.16691603
86	0xbdb79409	-0.08963782
87	0xbd334f0b	-0.043776553
88	0x3c89fa41	0.016842963
89	0xbc006ed2	-0.007838922
90	0xbd1c92ff	-0.038226124
91	0xbcafb0bf	-0.021446584
92	0xbd7f9e92	-0.062407084
93	0x3c47d288	0.012196191
94	0xbdc67865	-0.09690932
95	0xbce74558	-0.028231308
96	0xbcc8d16e	-0.024513926
97	0xbd7779ce	-0.060418896
98	0xbccbd1dd	-0.024880344
99	0xbdca93e7	-0.098914914
100	0x3c41697f	0.011804937
101	0x3d882510	0.06647694
102	0xbd751338	-0.05983278
103	0x3c7227e7	0.014780021
104	0xbd96ae76	-0.073574945
105	0xbdbd9330	-0.092565894
106	0xbb5bab6d	-0.0033518926
107	0xbcb2bdb6	-0.021818977
108	0xbc6fdd16	-0.014640113
109	0x3c1712f3	0.009220826
110	0xbc46e233	-0.012138891
111	0xbc9317cc	-0.017955683
112	0xbce98ae5	-0.028508613
113	0xbd31549e	-0.043293588
114	0xbd056fb3	-0.032577228
115	0xbc28cdb0	-0.010302946
116	0xbde89574	-0.11356631
117	0xbcb608c8	-0.022220984
118	0xbd2192ef	-0.039446767
119	0xbd3599e5	-0.04433622
120	0x3dc3ccee	0.095605716
121	0xbdab4fb5	-0.08364812
122	0xbbff1a03	-0.0077850833
123	0xbac823c0	-0.0015269443
124	0xbdbd24a1	-0.09235502
125	0xbd96b3c1	-0.07358504
126	0xbd407a53	-0.046991657
127	0xbd577850	-0.052604973

weight f4 [12, 128]
0	0x3d188e6c	0.0372452
1	0x3b9b7240	0.0047438443
2	0xbd07eb56	-0.03318342
3	0x3d4869f6	0.048929177
4	0xbd6fd95d	-0.058556903
5	0x3d65311f	0.05595505
6	0xbc504830	-0.012712523
7	0xbd8635ee	-0.06553255
8	0xbbb6a56a	-0.005573918
9	0x3cd25fd1	0.025680454
10	0xbcfd42bd	-0.030915612
11	0x3d5c422f	0.053774055
12	0x3c378ea6	0.011203444
13	0xbbaa9bb0	-0.0052065477
14	0xbd69a95c	-0.05704628
15	0xbc6732ed	-0.014111263
16	0xbd08e35e	-0.03341996
17	0xbd586d42	-0.05283857
18	0xbd7d3850	-0.061821282
19	0xbd00926e	-0.031389646
20	0x3cd47fa1	0.025939764
21	0xbbc1bad9	-0.0059121666
22	0xbcbe2d86	-0.023215067
23	0x3c3457d2	0.011007266
24	0xbc3ae0f8	-0.011406176
25	0xbd812b15	-0.06307045
26	0xbb9df6d3	-0.0048206835
27	0xbb174b55	-0.0023085673
28	0x3c5f6a56	0.013636192
29	0xbc362979	-0.011118286
30	0x3da5c4ac	0.08094153
31	0xbc9fbafe	-0.019498345
32	0xbd12830e	-0.035769515
33	0x3c2294fe	0.009923218
34	0xbc09535c	-0.008381691
35	0x3c068705	0.008210902
36	0xbd2cd079	-0.042191003
37	0xbd817ed6	-0.0632302
38	0x3a7b3200	0.0009582341
39	0x3d27570d	0.040854502
40	0xbc2c4ba7	-0.010516084
41	0xbd690b96	-0.056895815
42	0x3db61f48	0.08892685
43	0x3c8ea54e	0.017412808
44	0xbc223535	-0.009900381
45	0xbd26c964	-0.040719405
46	0x3c90d266	0.01767845
47	0x3d60e5e9	0.05490676
48	0xbb16f920	-0.0023036674
49	0x3c6a6e41	0.014308513
50	0xbd46da06	-0.048547767
51	0x3ca0f322	0.019647185
52	0xbc403a12	-0.011732595
53	0x3bbd469a	0.0057762386
54	0xbd5f284d	-0.054481793
55	0x3ad7f2b9	0.0016475535
56	0x3b8d9706	0.004320982
57	0x3cde7254	0.027154125
58	0xbd2f0190	-0.0427261
59	0xbb0933d8	-0.0020935442
60	0x3ceff334	0.029290773
61	0xbd9825ac	-0.0742906
62	0x3c236565	0.009972905
63	0xbd2c54c2	-0.04207302
64	0x3d105ade	0.035242908
65	0x3d95f941	0.07322932
66	0x3dc79add	0.09746335
67	0x3b7eab00	0.0038859248
68	0x3b86679f	0.004101708
69	0x3b85846e	0.0040746247
70	0x3d20203b	0.039093237
71	0xbc9f4a4e	-0.01944461
72	0x3c71b9b5	0.014753749
73	0x3d33318f	0.043748435
74	0x3d41eca7	0.04734483
75	0x3d387a0b	0.045038264
76	0xbd83e020	-0.06439233
77	0x3c034196	0.008011242
78	0x3ca28770	0.019839972
79	0xbc88692e	-0.016651716
80	0x3c9bd022	0.019020144
81	0xbcf249c7	-0.029576195
82	0x3c419f0b	0.011817704
83	0xbccb72f8	-0.024835095
84	0x3a48521b	0.0007641629
85	0xbd985f85	-0.07440094
86	0x3dcd5fbc	0.100280255
87	0xbd194019	-0.037414644
88	0xbcaf176c	-0.021373473
89	0xbd8de72d	-0.06928859
90	0xbb96177c	-0.0045804363
91	0x3c424675	0.011857619
92	0x3dbe4333	0.09290161
93	0xbce7f302	-0.028314117
94	0x3c4475fa	0.011991018
95	0xbb99c3e8	-0.0046925433
96	0x3d612b5b	0.054972988
97	0xbc53caa3	-0.01292673
98	0xbcb639c9	-0.022244351
99	0xbcaae178	-0.020859465
100	0xbc318774	-0.010835517
101	0xbb04a34d	-0.0020238936
102	0x3c8aa3f9	0.016923891
103	0x3c744ef1	0.014911399
104	0x3c96c36f	0.018403737
105	0x3cd68c21	0.026189866
106	0x3dabcc36	0.083885595
107	0x3cb4f8cc	0.022091292
108	0x3d841389	0.064490385
109	0x3d559ebe	0.05215334
110	0xbdab5af8	-0.0836696
111	0x3d2333e4	0.03984441
112	0x3d3f14b3	0.0466506
113	0xbc6f97f5	-0.014623632
114	0x3d2123cc	0.03934078
115	0x3caebd65	0.021330545
116	0x3c744944	0.014910046
117	0x3d2271e4	0.039659396
118	0xbdc2f719	-0.095197864
119	0xbd96bd73	-0.07360353
120	0x3aea9fb9	0.0017900384
121	0x3be81969	0.0070831073
122	0x3d032587	0.03201821
123	0xbcdb44d8	-0.026766226
124	0xbd2f298e	-0.04276424
125	0xbd411fcd	-0.04714947
126	0x3c0f30ab	0.008739631
127	0xbc88077c	-0.016605131
128	0x3d4c05fe	0.049810402
129	0xbd08b5bb	-0.033376437
130	0x3d510b50	0.05103618
131	0xbc908d3c	-0.01764547
132	0x3d224432	0.039615817
133	0xbbc87ddf	-0.0061185206
134	0x3c1a048b	0.009400497
135	0x3db7a47a	0.08966918
136	0x3d600bdc	0.05469881
137	0xbda34401	-0.07971955
138	0x3d354477	0.044254746
139	0x3de388f5	0.11110107
140	0x3d3777d5	0.044792015
141	0xbd89b615	-0.067241825
142	0xbc89e29a	-0.016831685
143	0xbcd6561d	-0.026164109
144	0x3d4bae55	0.049726803
145	0xbdb364c9	-0.087594576
146	0xbd605108	-0.054764777
147	0xbd5ce2a4	-0.05392708
148	0x3d3047cd	0.043037225
149	0xbd74c186	-0.05975487
150	0x3dc69a84	0.0969744
151	0x3d006940	0.031350374
152	0xbd20b401	-0.039234165
153	0xbcdfe11c	-0.02732902
154	0xbd94eccd	-0.07271729
155	0xbbafb2dc	-0.005361898
156	0xbdaf7d93	-0.08568873
157	0x3d14bac1	0.036310915
158	0x3c39df1a	0.011344695
159	0xbcd1e45c	-0.025621586
160	0x3bd784b0	0.006577097
161	0xbcb06b87	-0.021535648
162	0xbcbb8406	-0.022890102
163	0xbc6dd826	-0.014516866
164	0x3acb08c5	0.0015490284
165	0x3d1b3920	0.037896276
166	0xbb23ab00	-0.002497375
167	0xb8c57c19	-9.416807e-05
168	0xbc4d0d95	-0.012515445
169	0x3a8199da	0.000988777
170	0xbc412fb3	-0.011791158
171	0xbda5868f	-0.08082306
172	0xbc88c7d3	-0.016696846
173	0xbdeb5e13	-0.114925526
174	0x3e283fdd	0.16430612
175	0x3c9abd7f	0.018889187
176	0x3dc15eb3	0.094418906
177	0x3db56e71	0.08858956
178	0x3cae9046	0.02130903
179	0x3cc94859	0.02457063
180	0x3cc6b6e7	0.024257137
181	0x3d93599f	0.07194828
182	0xb9c7e825	-0.000381292
183	0x3c0254fd	0.007954833
184	0xbd02cd85	-0.03193428
185	0x3d845c33	0.06462898
186	0xbcfe6a25	-0.031056473
187	0x3d20cdd9	0.03925881
188	0x3cc2dc3b	0.023786655
189	0x3d0234ac	0.031788513
190	0xbd05d929	-0.032677803
191	0x3cb4e6a4	0.022082634
192	0xbd932f4f	-0.07186758
193	0x3cb3ef69	0.021964746
194	0xbd016c17	-0.031597223
195	0xbc9a3776	-0.018825274
196	0x3b02f0f7	0.0019980052
197	0xbbdc367b	-0.0067203618
198	0x3c1b77f9	0.009489053
199	0x3d40f8bb	0.047112208
200	0xbd559dd4	-0.05215247
201	0x3cf09087	0.029365791
202	0x3cbecdd4	0.023291506
203	0x3b0672ce	0.0020515206
204	0x39c7d048	0.0003811142
205	0xbc9b82f0	-0.018983334
206	0xbcaec283	-0.021332985
207	0x3d0b2640	0.033972025
208	0xbc69ca82	-0.014269473
209	0xbd42beaa	-0.047545113
210	0x3b8b0b34	0.004243279
211	0x3d1e2374	0.03860803
212	0x3d49ff25	0.04931559
213	0xbd0cafc1	-0.0343473
214	0xbc6c5511	-0.014424578
215	0xbd0cb157	-0.034348812
216	0x3dad098d	0.08449087
217	0x3c7ea31f	0.015541821
218	0x3d874213	0.066043995
219	0x3e03f096	0.12884745
220	0xbcafe8b6	-0.02147327
221	0xbd18e074	-0.03732343
222	0x3cab238b	0.020890972
223	0xbc88ae30	-0.016684622
224	0x3d2c6ce7	0.042096045
225	0xbd191d1f	-0.037381288
226	0xbc9252ae	-0.01786169
227	0xbc3d1abe	-0.01154202
228	0x3dae85f4	0.08521643
229	0xbd7dc6a9	-0.061957035
230	0x3cb4e53e	0.022081967
231	0x3d126532	0.03574104
232	0xbd7ceb1f	-0.061747666
233	0x3c0e990e	0.008703483
234	0x3d9cc7c6	0.07655291
235	0x3a9e8a25	0.0012095614
236	0x3cd6e504	0.02623225
237	0x3d408ab1	0.047007266
238	0xbcb4a226	-0.022049975
239	0xbd106a1e	-0.03525745
240	0xbd342242	-0.043977983
241	0x3c108f05	0.008823161
242	0x3b36af20	0.0027875379
243	0xbcee2f51	-0.029075297
244	0xbd09ebe6	-0.033672236
245	0xba8048c8	-0.0009787316
246	0x3e1c20c9	0.15246882
247	0xbb542fb5	-0.0032377068
248	0x3d4718a8	0.0486075
249	0xbbcbda70	-0.006221108
250	0x3d8ce526	0.06879644
251	0xbbad5c5b	-0.0052905506
252	0xbdb28c1d	-0.08718131
253	0xbc1c4815	-0.00953867
254	0x3db5392a	0.08848794
255	0xbd2b15d8	-0.04176888

bias f4 [12]
0	0x3dade33e	0.08490609
1	0x3dd38854	0.10328737
2	0xbdde40fd	-0.10852239
3	0x3d0ced65	0.034406085
4	0xbd8ee3fa	-0.06977077
5	0xbe521faa	-0.20519891
6	0x3d5f1758	0.05446562
7	0x3e3fd1bf	0.18732356
8	0x3ca0c789	0.019626396
9	0x3dfbbc15	0.12291733
10	0x3dd1ce90	0.10244477
11	0xbbf0ec0b	-0.0073523573
